checkpoint_critic.pth (torch_old, 155616 bytes, 5 tensors)

fc1.weight f4 [128, 33]
0.033966597 0.13072492 -0.047706746 -0.1473404 -0.0919789 -0.4490626 0.15045454 0.032356724
0.055031672 -0.048774507 -0.0044758096 -0.017938208 -0.035902154 -0.009579389 -0.09383526 0.015645402
-0.26796988 0.131395 0.24218893 -0.15419191 -0.1011927 0.07515357 -0.049093205 -0.022201795
-0.0084142815 0.0016758003 -0.034879625 -0.05358693 -0.07812554 -0.015060857 -0.06445805 -0.045575917
0.043698784 -0.22725384 0.016017321 -0.07142777 -0.06441375 0.12821667 -0.036838982 -0.14185311
-0.037376758 0.08997471 -0.00039890385 -0.03992028 -0.056444842 -0.044392373 0.07149961 0.09586195
0.049565244 0.20574676 0.3466274 -0.03844209 0.26490214 0.032083273 -0.011046946 -0.07203447
-0.020769028 0.024701463 -0.0061407974 0.017035384 -0.059353366 -0.0202427 -0.04085096 0.06836437
-0.059185144 0.24350056 0.07728665 -0.021844132 0.021581683 0.19592105 -0.033508483 -0.09005724
-0.14877012 0.0031525989 0.19902863 -0.07883631 -0.041890126 -0.018556738 0.0058408002 0.0015253052
-0.034259934 -0.017712131 0.09049613 0.016363755 0.037517417 0.122934185 -0.033011373 0.021154087
0.06496968 -0.06677423 0.018365005 -0.071504496 -0.06780614 0.015057946 0.060260046 0.044640712
-0.014025246 0.012162156 -0.1852534 -0.092925034 -0.06285652 -0.12165955 -0.07142745 0.13670054
-0.19904554 -0.18000473 -0.086863294 0.08612262 0.026077382 -0.09598139 -0.03517427 -0.01996118
0.011881083 0.057372615 0.07180786 -0.17149936 -0.044101443 -0.12732439 -0.009421094 -0.017909441
-0.07529652 0.11084378 0.020000543 0.053203635 -0.042573586 0.09109618 0.06603069 0.043685857
-0.069750234 0.05764872 -0.046731222 -0.04380084 -0.07492453 0.07359788 -0.038419962 -0.10175846
0.10808926 -0.08836221 -0.14121911 -0.05621636 -0.124584086 -0.022534238 0.016173594 -0.06714919
-0.02685485 0.094493985 -0.084700644 0.049627136 0.23802453 0.13662201 -0.15955532 -0.017119199
0.013934561 0.073365204 0.0059159854 0.07868372 0.0060564564 0.0054223854 -0.07068786 0.1396444
-0.068182044 0.05838748 -0.1543088 -0.035307206 -0.40678245 0.039321393 0.081518464 -0.060571656
-0.15443537 0.071770996 0.08128242 0.033010736 0.0054829167 0.048152555 -0.026918642 0.064257905
0.047024384 -0.03273215 0.17100416 -0.020494062 0.09595426 -0.03125954 0.10246961 -0.023912555
0.06776013 0.010672084 -0.009056875 -0.0409006 0.071195714 0.010362947 0.025172465 -0.12866725
0.123731494 -0.10467859 -0.01983758 -0.04492092 -0.039344586 0.12957741 0.12258493 0.08309373
-0.09506692 -0.23823746 -0.13750437 -0.1490079 -0.06586357 0.040438432 -0.021501727 -0.0069994843
0.061943885 -0.004906751 0.012917578 -0.03143169 -0.019772545 0.05852203 0.11149571 0.050358415
0.25791574 0.007009422 0.05225751 -0.06653769 -0.025938518 -0.028860908 0.048565406 -0.0060503273
-0.06884358 0.024063064 -0.09383465 -0.04368287 -0.048652876 -0.04477068 0.6072426 -0.13213627
-0.08133595 -0.020450214 0.008841562 -0.11568839 -0.18146059 0.3199716 -0.025144307 0.08307809
0.06313176 0.033100214 -0.06076451 0.006548275 0.0704923 0.02947944 0.066212885 0.13032453
0.09612005 0.019387692 0.011259939 0.0791262 0.119974665 0.012944011 0.018282896 0.044990387
00000000: 8f20 0b3d c1dc 053e 2668 43bd 67e0 16be
00000010: 6f5f bcbd 88eb e5be c110 1a3e 7c88 043d
00000020: e468 613d c7c7 47bd d0a9 92bb 26f3 92bc
00000030: 230e 13bd dff2 1cbc b32c c0bd c92a 803c
00000040: 5933 89be 698c 063e 6000 783e 7ce4 1dbe
00000050: 1e3e cfbd 1dea 993d f515 49bd 8ae0 b5bc
00000060: 0edc 09bc 87a6 db3a f0dd 0ebd f87d 5bbd
00000070: 4800 a0bd d0c1 76bc 9502 84bd d0ad 3abd
00000080: 7ffd 323d 3bb5 68be c236 833c b948 92bd
00000090: 5beb 83bd 3b4b 033e 79e4 16bd f141 11be
000000a0: 5f18 19bd a944 b83d f823 d1b9 7383 23bd
000000b0: b532 67bd c7d4 35bd 636e 923d 4553 c43d
000000c0: ed04 4b3d 47af 523e 2679 b13e 7475 1dbd
000000d0: 41a1 873e c069 033d 40fe 34bc cf86 93bd
000000e0: cf23 aabc b95a ca3c be38 c9bb ca8d 8b3c
000000f0: 841c 73bd 05d4 a5bc 5653 27bd 9e02 8c3d
00000100: 1f6c 72bd 3658 793e 7748 9e3d 77f2 b2bc
00000110: 12cc b03c 879f 483e 3140 09bd ee6f b8bd
00000120: 3257 18be d59b 4e3b 29ce 4b3e ee74 a1bd
00000130: fb94 2bbd 4d04 98bc 2f64 bf3b c0ec c73a
00000140: 2554 0cbd 0819 91bc 0956 b93d 480d 863c
00000150: ddab 193d ebc4 fb3d ef36 07bd 564b ad3c
00000160: d30e 853d edc0 88bd 3572 963c f370 92bd
00000170: f2dd 8abd 9ab5 763c 3dd3 763d 2ed9 363d
00000180: 25ca 65bc c843 473c 11b3 3dbe 7b4f bebd
00000190: ebba 80bd a428 f9bd 8e48 92bd 3afb 0b3e
000001a0: 98d2 4bbe 2953 38be 62e5 b1bd 0e61 b03d
000001b0: 3ca0 d53c e491 c4bd e512 10bd a185 a3bc
000001c0: e0a8 423c 8cff 6a3d 0010 933d 879d 2fbe
000001d0: b7a3 34bd 5361 02be ef5a 1abc d2b6 92bc
000001e0: 1035 9abd 1002 e33d 2ed8 a33c 0eec 593d
000001f0: a461 2ebd a290 ba3d 193b 873d f1ef 323d
00000200: 36d9 8ebd 1021 6c3d 3d69 3fbd 8268 33bd
00000210: 0872 99bd 7cba 963d 405e 1dbd bd66 d0bd
00000220: e75d dd3d 3ff7 b4bd be9b 10be 2043 66bd
00000230: f125 ffbd b999 b8bc 7c7e 843c 8485 89bd
00000240: b4fe dbbc 1086 c13d 8877 adbd d345 4b3d
00000250: b4bc 733e a4e6 0b3e 7862 23be 903d 8cbc
00000260: c94d 643c 7f40 963d e2da c13b ee24 a13d
00000270: 3d75 c63b 44ae b13b ccc4 90bd f1fe 0e3e
00000280: 07a3 8bbd b627 6f3d 2003 1ebe 4a9e 10bd
00000290: ca45 d0be 780f 213d 27f3 a63d fc19 78bd
000002a0: 4e24 1ebe acfc 923d 6677 a63d 4436 073d
000002b0: 0aaa b33b 9d3b 453d 7c84 dcbc a699 833d
000002c0: a49c 403d 2612 06bd b71b 2f3e 2ae3 a7bc
000002d0: ab83 c43d 010a 00bd 96db d13d 43e4 c3bc
000002e0: d3c5 8a3d f7d9 2e3c 4963 14bc 6387 27bd
000002f0: 0fcf 913d 5ac9 293c 7c36 ce3c 59c1 03be
00000300: f066 fd3d bb61 d6bd 6c82 a2bc 00ff 37bd
00000310: ca27 21bd f1af 043e cf0d fb3d 0c2d aa3d
00000320: 72b2 c2bd 85f4 73be f2cd 0cbe 8795 18be
00000330: 7be3 86bd c5a2 253d 6424 b0bc ee5b e5bb
00000340: dfb8 7d3d d0c8 a0bb 40a4 533c 84be 00bd
00000350: 08fa a1bc ccb4 6f3d dd57 e43d a044 4e3d
00000360: 880d 843e 4baf e53b f90b 563d ea44 88bd
00000370: 047d d4bc b66d ecbc 85ec 463d d341 c6bb
00000380: ddfd 8cbd e71f c53c 622c c0bd cfec 32bd
00000390: 3d48 47bd 7661 37bd 4074 1b3f bb4e 07be
000003a0: 7693 a6bd 3587 a7bc 33dc 103c 09ee ecbd
000003b0: ced0 39be 51d3 a33e 6ffb cdbc d824 aa3d
000003c0: 394b 813d 1794 073d 35e4 78bd e992 d63b
000003d0: 445e 903d de7e f13c 9f9a 873d cb73 053e
000003e0: 97da c43d f0d2 9e3c 9b7b 383c eb0c a23d
000003f0: 47b5 f53d 1e13 543c 03c6 953c d747 383d

fc1.bias f4 [128]
0.037504166 0.05941306 0.061964847 0.033433065 0.0012526395 0.016845059 -0.05464348 -0.17278267
0.0138295265 -0.2025274 -0.054886594 0.08047381 -0.11298368 0.0004326142 -0.120245025 -0.15260448
-0.16950032 -0.12363624 -0.112327605 -0.045756586 0.015087258 -0.04719556 -0.23761283 -0.17959628
-0.030375173 0.061460502 0.1085108 -0.08830477 0.028513983 -0.06717776 -0.2352405 -0.14995234
0.04787033 0.099974066 -0.006454945 0.034744833 -0.1099658 -0.07200147 0.03593721 -0.09925281
-0.1286761 0.20016202 -0.104541786 -0.032255135 0.1277356 -0.057882283 0.030360034 0.042766303
-0.09017569 0.05119224 0.07666869 0.2020091 0.15687098 -0.113996446 0.04373242 -0.00689659
0.11790951 -0.0016345906 -0.108791225 0.121482976 0.019710938 0.039121553 -0.04601158 -0.17960802
-0.088432126 0.070562415 -0.01690919 -0.14013211 -0.04502028 -0.014804423 -0.15126559 -0.036679283
-0.066308096 -0.13683197 -0.06108392 0.09475968 -0.13801037 0.15110354 -0.19133596 0.09583989
-0.058721043 -0.049960155 -0.14153756 -0.095725805 0.013171391 -0.14859945 -0.030155567 -0.13236254
0.11811811 -0.0078226365 0.04683298 -0.13764273 0.003278552 -0.12293483 -0.06797471 0.19403386
-0.12514764 0.07522308 -0.019682474 -0.23213132 -0.18706286 -0.16633789 -0.11957042 -0.05730297
0.0089984415 -0.015790433 -0.01985736 -0.107164 -0.0017613383 -0.20372316 0.0494422 -0.038995992
0.07165648 0.05771016 -0.12032551 -0.20584801 -0.07414912 -0.089445 0.094079554 -0.14736158
-0.057840962 -0.19477607 0.020889793 0.102709875 -0.015850786 0.03931277 -0.04057951 -0.058549862
00000000: f89d 193d 1c5b 733d dace 7d3d 1cf1 083d
00000010: 9b2f a43a a6fe 893c d7d1 5fbd f1ed 30be
00000020: 3d95 623c 5863 4fbe c4d0 60bd 74cf a43d
00000030: fd63 e7bd 7fd0 e239 0643 f6bd 5944 1cbe
00000040: 7e91 2dbe ff34 fdbd 040c e6bd 426b 3bbd
00000050: 8c30 773c 2250 41bd c750 73be 16e8 37be
00000060: 5bd5 f8bc 02be 7b3d e93a de3d 22d9 b4bd
00000070: 2896 e93c 7e94 89bd e3e2 70be 1b8d 19be
00000080: ae13 443d 34bf cc3d 0184 d3bb 9950 0e3d
00000090: c035 e1bd 8275 93bd e532 133d 0f45 cbbd
000000a0: abc3 03be 46f7 4c3e 011a d6bd f61d 04bd
000000b0: 1fcd 023e f915 6dbd 9bb5 f83c b82b 2f3d
000000c0: 08ae b8bd f4ae 513d 7904 9d3d 79db 4e3e
000000d0: c9a2 203e f876 e9bd c420 333d cafc e1bb
000000e0: 8b7a f13d c23f d6ba efcd debd 11cc f83d
000000f0: d578 a13c ec3d 203d a376 3cbd 2aeb 37be
00000100: e71b b5bd 0783 903d 2485 8abc cb7e 0fbe
00000110: 2f67 38bd 408e 72bc 5ee5 1abe 043d 16bd
00000120: 8acc 87bd ae1d 0cbe 2233 7abd 5d11 c23d
00000130: 9752 0dbe e3ba 1a3e 93ed 43be b447 c43d
00000140: 7a85 70bd 05a3 4cbd 39ef 10be e40b c4bd
00000150: d1cc 573c 742a 18be cf08 f7bc 0c8a 07be
00000160: e8e7 f13d 842a 00bc f0d3 3f3d 37f2 0cbe
00000170: fadc 563b 42c5 fbbd 5336 8bbd d0b0 463e
00000180: b426 00be 8f0e 9a3d 243d a1bc d5b3 6dbe
00000190: 688d 3fbe 7b54 2abe 56e1 f4bd 85b6 6abd
000001a0: 336e 133c f05a 81bc e7ab a2bc cd78 dbbd
000001b0: b5dc e6ba ce9c 50be e883 4a3d 43ba 1fbd
000001c0: a2c0 923d 7d61 6c3d 396d f6bd d2c9 52be
000001d0: 7edb 97bd f12e b7bd c8ac c03d f4e5 16be
000001e0: a5ea 6cbd 6173 47be 1221 ab3c 8e59 d23d
000001f0: 82d9 81bc 6d06 213d b336 26bd fbd1 6fbd

fc2.weight f4 [256, 132]
0.05924125 -0.04546509 -0.015432281 0.01214652 -0.018595885 -0.048541684 -0.06603195 0.04079885
-0.0406756 0.06313621 -0.03772713 -0.032880455 0.013539301 0.061659306 0.035969287 -0.05061266
-0.065381914 -0.08031772 0.07914746 -0.042759877 0.05412176 0.08445482 -0.023888588 -0.082722045
0.03132336 -0.061938897 -0.027281497 -0.057889964 0.037432987 0.0147504695 -0.028339831 -0.05127461
-0.0038003884 -0.021532632 -0.19718046 -0.04877804 0.021241482 0.033440765 0.03174808 0.025502546
-0.015255858 -0.09705622 0.0567037 -0.03690434 0.0058127875 0.093897164 0.07127401 -0.05357808
0.045858257 -0.057156894 -0.06689444 0.045746747 -0.0033375346 0.00811664 -0.10131829 -0.062369462
-0.011577192 -0.0051510055 0.07938347 0.027663905 -0.046030488 0.06813237 0.013742778 0.007225245
-0.023907818 -0.014472973 -0.03064121 0.03726837 -0.05626613 -0.00864695 -0.07054065 -0.06981833
-0.0063243452 -0.051174268 -0.04850815 0.025183603 -0.030818233 -0.12848443 -0.029420456 -0.051243372
-0.05229079 -0.08309329 -0.0062468704 -0.00024798323 0.048656903 -0.10574569 -0.07466177 -0.046994224
0.03039283 -0.015589126 -0.08516272 -0.07637113 0.079909384 -0.07949676 0.021034526 0.11734732
-0.06555934 -0.0011436148 0.038601596 0.0077088815 -0.08629331 0.08219895 0.0005173352 -0.1570063
-0.0020709403 0.047617044 -0.047107123 -0.0818595 -0.123937 -0.05150241 -0.06171542 0.048216242
0.048138823 0.024217268 0.110945374 -0.025116775 -0.118850805 0.018466601 0.104142755 -0.026691938
0.04274243 0.025047833 -0.018186709 0.033318333 -0.12566733 0.041183818 -0.0035947575 0.004856485
-0.036731593 0.013919148 0.020249764 0.06432224 0.031071184 0.03145592 0.07904776 0.021479275
0.018037105 -0.0017539992 -0.055984523 -0.13237801 0.005602267 -0.14871609 0.02838922 -0.049200613
-0.038377963 -0.075320594 -0.093552895 0.07282157 -0.029208906 -0.11287821 -0.19885029 0.0465339
-0.0020730316 0.0023657696 -0.13212621 -0.17107072 -0.047073383 -0.18619858 0.060785033 0.011648718
0.02796027 -0.11748451 -0.029247105 0.030398436 0.07495207 0.01380581 -0.089888275 -0.1763274
0.02393395 -0.05252944 -0.08349015 -0.07996133 -0.048660822 -0.0240096 0.05343177 0.052869264
0.045981985 -0.014404272 0.04857522 -0.016876906 0.020970952 0.004469992 -0.012845211 -0.039509986
-0.028913964 0.06257231 0.046259444 -0.026397074 -0.017632918 0.02326085 -0.0739653 -0.101329096
0.053274862 0.01760781 0.0040901736 -0.06538961 -0.060970116 0.07609405 0.038851626 -0.17477041
-0.051581565 -0.15767123 0.010607613 0.065438 -0.09588655 0.09417105 -0.052573957 0.0076331585
-0.055399902 0.05847764 0.039447807 0.0036662626 -0.056845915 0.023882551 0.091753066 -0.068952
-0.022777965 -0.14247021 -0.039550837 -0.04287559 -0.026654467 0.04978141 -0.040332332 -0.024408098
-0.011888204 0.004982802 -0.0016596676 0.04378038 0.08030133 -0.037885938 0.024080958 -0.056783006
-0.053899616 -0.095730804 -0.060746618 -0.024862446 -0.04603891 0.09433414 -0.007982981 -0.0016193633
0.08767146 0.021186518 -0.0014725832 -0.04097766 -0.16215292 -0.01952572 -0.031701636 -0.03239287
-0.07417897 -0.017387817 -0.15697344 0.0138407 -0.048331425 -0.07066243 -0.05253021 -0.002252574
00000000: f4a6 723d 9a39 3abd aed7 7cbc 3302 473c
00000010: 6656 98bc a5d3 46bd c23b 87bd b21c 273d
00000020: 759b 26bd 8f4d 813d c387 1abd a8ad 06bd
00000030: f2d3 5d3c 788e 7c3d 8854 133d 384f 4fbd
00000040: f4e6 85bd 9e7d a4bd 1018 a23d fb24 2fbd
00000050: c7ae 5d3d a6f6 ac3d 00b2 c3bc 2d6a a9bd
00000060: ec4c 003d a4b3 7dbd 727d dfbc 071e 6dbd
00000070: 5553 193d f4ab 713c ef28 e8bc 5305 52bd
00000080: f00f 79bb 3465 b0bc ade9 49be 7bcb 47bd
00000090: 9e02 ae3c 2ff9 083d 460a 023d b7ea d03c
000000a0: b5f3 79bc 69c5 c6bd 2442 683d 0129 17bd
000000b0: 3279 be3b 284d c03d 1cf8 913d b074 5bbd
000000c0: ded5 3b3d 591d 6abd f4ff 88bd f160 3b3d
000000d0: 8aba 5abb a8fb 043c f77f cfbd 1f77 7fbd
000000e0: 43ae 3dbc c4c9 a8bb cd93 a23d 6a9f e23c
000000f0: 778a 3cbd fc88 8b3d 6429 613c bfc1 ec3b
00000100: 54da c3bc 0c20 6dbc 4603 fbbc b8a6 183d
00000110: 5077 66bd f0ab 0dbc 9e77 90bd eafc 8ebd
00000120: 743c cfbb 1c9c 51bd 7bb0 46bd d84d ce3c
00000130: 8576 fcbc 6c91 03be 2b03 f1bc 92e4 51bd
00000140: de2e 56bd d12c aabd 8cb2 ccbb bf03 82b9
00000150: 764c 473d 3291 d8bd 45e8 98bd 047d 40bd
00000160: 62fa f83c 8969 7fbc cb69 aebd 7868 9cbd
00000170: 88a7 a33d 33cf a2bd 9950 ac3c cb53 f03d
00000180: fa43 86bd 58e5 95ba b51c 1e3d c99a fc3b
00000190: 8cba b0bd ec57 a83d c79d 073a 42c6 20be
000001a0: 9db8 07bb 170a 433d 66f3 40bd f4a5 a7bd
000001b0: afd2 fdbd 31f4 52bd 4fc9 7cbd 657e 453d
000001c0: 372d 453d 4b63 c63c 5437 e33d b2c1 cdbc
000001d0: 0d68 f3bd 4547 973c cc48 d53d 0da9 dabc
000001e0: b012 2f3d 1d31 cd3c 4bfc 94bc ce78 083d
000001f0: f0ae 00be 5db0 283d 0696 6bbb 2623 9f3b
00000200: de73 16bd 230d 643c d5e2 a53c 61bb 833d
00000210: ff88 fe3c ecd7 003d cbe3 a13d 4ef5 af3c
00000220: 8dc2 933c 72e6 e5ba 0750 65bd 1a8e 07be
00000230: 3993 b73b 0849 18be 8290 e83c 9586 49bd
00000240: 3632 1dbd af41 9abd a998 bfbd 7a23 953d
00000250: 8447 efbc b12c e7bd 699f 4bbe 559a 3e3d
00000260: b3db 07bb 070b 1b3b 184c 07be 2a2d 2fbe
00000270: 05d0 40bd d7aa 3ebe baf9 783d 44da 3e3c
00000280: f00c e53c b89b f0bd a097 efbc 2406 f93c
00000290: 7980 993d c431 623c 5817 b8bd 2c8f 34be
000002a0: 2211 c43c 1c29 57bd e2fc aabd c4c2 a3bd
000002b0: 9250 47bd c8af c4bc 46db 5a3d 718d 583d
000002c0: 9b57 3c3d e5ff 6bbc cff6 463d 7041 8abc
000002d0: 46cb ab3c 0379 923b b874 52bc 39d5 21bd
000002e0: fadc ecbc e925 803d 8b7a 3d3d ad3e d8bc
000002f0: e972 90bc 8a8d be3c 1f7b 97bd a185 cfbd
00000300: be36 5a3d 413e 903c dd06 863b fdea 85bd
00000310: cdbb 79bd 33d7 9b3d e222 1f3d 04f7 32be
00000320: 3147 53bd 9174 21be 8ecb 2d3c 5c04 863d
00000330: 2b60 c4bd c0dc c03d ca57 57bd 931f fa3b
00000340: 02eb 62bd 4086 6f3d 0694 213d ae45 703b
00000350: 43d7 68bd 57a5 c33c 08e9 bb3d b536 8dbd
00000360: db98 babc b6e3 11be 0f00 22bd 519e 2fbd
00000370: 785a dabc 97e7 4b3d 8433 25bd 7ef3 c7bc
00000380: bec6 42bc c646 a33b 3489 d9ba 0e53 333d
00000390: 0675 a43d 492e 1bbd 6e45 c53c 4c95 68bd
000003a0: d8c5 5cbd 830e c4bd 72d1 78bd 54ac cbbc
000003b0: 4c93 3cbd 4232 c13d 0dcb 02bc d140 d4ba
000003c0: 188d b33d 598f ad3c b103 c1ba 31d8 27bd
000003d0: 6a0b 26be 67f4 9fbc 93d9 01bd 63ae 04bd
000003e0: 25eb 97bd e570 8ebc a5bd 20be 1ac4 623c
000003f0: 2cf7 45bd 77b7 90bd eb29 57bd ec9f 13bb

fc2.bias f4 [256]
0.06338954 0.039890736 0.032228105 0.14109376 0.033292864 -0.02260968 0.03937917 0.15700866
0.10142493 -0.00922485 -0.010248354 -0.02179134 0.03572545 0.082261324 0.039292563 -0.07373816
0.019235628 0.055150874 -0.14747605 -0.0132336365 0.036648754 0.039232552 0.011742583 0.022772128
0.104611866 -0.09915095 -0.0034282727 0.056283176 -0.09081322 0.013274661 -0.06360354 -0.07922499
-0.081731126 -0.0401147 0.105229385 0.039842226 0.03805534 0.03692982 -0.03350095 0.04057089
0.069735914 -0.09711989 -0.055705607 -0.053372577 -0.005818414 0.00079368375 0.0004999449 -0.078748204
-0.077780075 0.040792137 0.16163157 0.082178734 0.020560522 -0.049938343 0.010457744 0.00868782
0.120649576 0.078939594 -0.027536344 -0.022846872 -0.12795119 -0.003137661 -0.021967001 0.048838973
-0.027253391 -0.123511076 0.02546315 0.16150567 0.05254534 -0.007951364 0.0659358 0.031566247
-0.061770875 0.023096034 -0.019876027 -0.08608257 0.10459987 0.004469291 0.0066912896 0.052482046
0.070459686 -0.09055211 -0.017754069 -0.1187206 -0.025165034 0.1576998 0.03473438 0.018551689
0.008295084 -0.1077343 0.011447345 -0.13168092 0.12267878 -0.052034438 -0.06265896 0.061929256
0.061353397 0.13677227 0.021673823 0.1437849 0.12786172 -0.09398873 0.046269402 -0.11761826
-0.08755997 -0.09429544 -0.07923779 0.05359864 -0.059846528 -0.09606698 0.086687826 0.08922424
0.05966146 -0.08205301 -0.058538985 0.065479815 0.01574366 0.063330986 0.14329045 -0.0028234732
0.02311544 0.026809735 -0.09142524 0.15168631 0.048573818 0.057991195 -0.06350509 0.080934554
0.16484344 0.11719274 -0.09435851 0.10848266 -0.027415326 0.12979056 -0.02004867 0.023625623
0.020757688 0.12006324 -0.041194737 -0.062206548 -0.004310731 0.057699274 0.020468764 0.026365722
0.07181813 0.022814192 -0.00034839648 -0.019716222 0.120038375 -0.038548 0.06135427 0.009007393
0.050781067 0.011985173 0.045522466 -0.01851023 0.049616974 0.13741598 0.0033094964 0.078749
0.15473554 -0.077755846 0.0351209 -0.0055334717 -0.047735672 -0.035998844 0.13557388 0.1049906
-0.090159446 -0.09131482 -0.13294518 -0.08605834 0.12656976 0.03271804 -0.0472001 0.02865156
-0.08200754 0.0012472387 -0.0854595 0.022705514 0.008379046 -0.10457809 0.068459846 0.16565166
0.14022738 0.011476236 0.049767148 0.05700025 0.0010176513 0.13429433 -0.028615477 -0.028641148
0.057462115 0.0746821 -0.0019554638 -0.018988105 -0.08067913 -0.013668775 0.058178 0.043791056
-0.008420473 0.12736401 -0.052546848 -0.08048657 0.13788056 -0.08096972 -0.0952968 0.11470749
-0.052704312 0.11924824 0.16841765 -0.07170714 -0.07389669 0.044145413 0.10865692 0.05325841
0.09356149 -0.0720665 0.14635961 0.019988906 0.06716889 0.0024442056 0.119656585 0.05484396
0.06532755 0.13298683 -0.0333742 -0.024659082 -0.030868828 -0.01600804 0.030941507 -0.0039338334
-0.08891894 0.024287323 -0.030718278 0.02276214 -0.04111083 0.030473832 0.121383995 -0.041325215
-0.003484048 -0.036002025 -0.021108946 -0.0011970825 0.028182058 0.09832846 -0.03615472 0.06588152
0.0918098 0.019775037 -0.06497567 0.117273055 0.015159716 -0.07217893 -0.041479662 0.059052065
00000000: 60d2 813d 7864 233d 9e01 043d e27a 103e
00000010: 195e 083d f037 b9bc 0d4c 213d e1c6 203e
00000020: e0b7 cf3d d323 17bc b6e8 27bc c183 b2bc
00000030: d954 123d a078 a83d 3df1 203d 0804 97bd
00000040: 0994 9d3c e2e5 613d f603 17be e5d1 58bc
00000050: 011d 163d 50b2 203d f663 403c 9d8c ba3c
00000060: bf3e d63d a70f cbbd dfac 60bb 3089 663d
00000070: 48fc b9bd f77d 593c 9342 82bd b640 a2bd
00000080: a662 a7bd 504f 24bd 8182 d73d 9a31 233d
00000090: ebdf 1b3d b943 173d 4b38 09bd a92d 263d
000000a0: b4d1 8e3d cbe6 c6bd 902b 64bd 349d 5abd
000000b0: 65a8 bebb 370f 503a bc0e 033a bd46 a1bd
000000c0: 294b 9fbd a815 273d bf82 253e 534d a83d
000000d0: 8a6e a83c 268c 4cbd f556 2b3c 5c57 0e3c
000000e0: 2017 f73d 15ab a13d e693 e1bc 5d29 bbbc
000000f0: a305 03be 37a1 4dbb 24f4 b3bc 600b 483d
00000100: 8142 dfbc 60f3 fcbd 1998 d03c be61 253e
00000110: c839 573d 7046 02bc 5909 873d 9c4b 013d
00000120: 7503 7dbd e533 bd3c 0dd3 a2bc 0f4c b0bd
00000130: 7538 d63d 2173 923b 9b42 db3b 6af7 563d
00000140: 2b4d 903d 6273 b9bd fb70 91bc c923 f3bd
00000150: e726 cebc 0e7c 213e a345 0e3d b6f9 973c
00000160: 1be8 073c cda3 dcbd a58d 3b3c 5dd7 06be
00000170: 033f fb3d 1022 55bd 5753 80bd 88a9 7d3d
00000180: b34d 7b3d 080e 0c3e 4d8d b13c 593c 133e
00000190: 2fee 023e 2a7d c0bd fc84 3d3d d8e1 f0bd
000001a0: a452 b3bd f81d c1bd 6c47 a2bd 3f8a 5b3d
000001b0: a221 75bd c4be c4bd 6389 b13d 33bb b63d
000001c0: 935f 743d 690b a8bd 93c6 6fbd 481a 863d
000001d0: d9f8 803c adb3 813d bbba 123e 050a 39bb
000001e0: 975c bd3c 17a0 db3c 283d bbbd a853 1b3e
000001f0: 57f5 463d 2d88 6d3d f50e 82bd 04c1 a53d
00000200: b8cc 283e bf02 f03d 093f c1bd 282c de3d
00000210: 1b96 e0bc d1e7 043e 1c3d a4bc 868a c13c
00000220: 070c aa3c b7e3 f53d d0bb 28bd 4bcc 7ebd
00000230: 0841 8dbb 1356 6c3d 1cae a73c edfc d73c
00000240: 6215 933d d4e4 ba3c fca8 b6b9 ea83 a1bc
00000250: aed6 f53d 82e4 1dbd 9d4e 7b3d bf93 133c
00000260: cfff 4f3d 765d 443c c475 3a3d c4a2 97bc
00000270: 2b3b 4b3d c6b6 0c3e 23e4 583b 2847 a13d
00000280: fe72 1e3e 753e 9fbd efda 0f3d 2052 b5bb
00000290: 7b86 43bd 8673 13bd e1d3 0a3e 5005 d73d
000002a0: 84a5 b8bd 4403 bbbd c822 08be 5b3f b0bd
000002b0: 819b 013e 5a03 063d e454 41bd adb6 ea3c
000002c0: 92f3 a7bd 637a a33a 6405 afbd ea00 ba3c
000002d0: 4448 093c 0a2d d6bd ad34 8c3d 97a0 293e
000002e0: c497 0f3e d306 3c3c a3d8 4b3d 1879 693d
000002f0: b662 853a 7484 093e 016b eabc d7a0 eabc
00000300: 655d 6b3d eef2 983d 3d27 00bb f18c 9bbc
00000310: 1a3b a5bd fff2 5fbc 0e4c 6e3d 405e 333d
00000320: 06f6 09bc b66b 023e 5d3b 57bd 25d6 a4bd
00000330: 9030 0d3e 74d3 a5bd f82a c3bd c3eb ea3d
00000340: 7ae0 57bd 6c38 f43d ad75 2c3e 31db 92bd
00000350: 2657 97bd d2d1 343d 8587 de3d 7e25 5a3d
00000360: 2b9d bf3d 9a97 93bd 4bdf 153e c6bf a33c
00000370: d88f 893d f72e 203b 830e f53d 0fa4 603d
00000380: 73ca 853d b32d 083e 63b3 08bd d801 cabc
00000390: a0e0 fcbc 4b23 83bc 0b79 fd3c 63e7 80bb
000003a0: 221b b6bd 35f6 c63c e6a4 fbbc ab77 ba3c
000003b0: d463 28bd 42a4 f93c 2c98 f83d a144 29bd
000003c0: a054 64bb dc76 13bd abec acbc 6ce7 9cba
000003d0: 0fde e63c 6e60 c93d f916 14bd e4ec 863d
000003e0: c706 bc3d 42ff a13c f711 85bd db2c f03d
000003f0: 7560 783c 8cd2 93bd 94e6 29bd 94e0 713d

fc3.weight f4 [1, 256]
-0.040591367 -0.07947608 -0.12960766 0.06890313 -0.17131864 0.13056691 -0.12964861 0.13952382
0.11028003 -0.121742666 0.058716487 0.2083731 0.08573324 0.05650972 0.063334234 -0.09040755
0.19526407 0.059666358 -0.103971004 0.10475631 0.1672307 0.16617648 0.075046465 0.042555507
0.035992507 -0.06361369 0.046710767 0.21826829 -0.055445522 -0.12015044 -0.04353838 0.14017692
-0.12129984 0.17023838 0.03856762 -0.12791094 0.05881194 -0.13098203 -0.11329059 0.15490273
0.2285099 -0.08707135 -0.16376625 -0.19745073 0.18075123 0.08675469 -0.07899806 -0.16947792
-0.07883136 0.046637718 0.04208098 0.08698947 0.072988324 0.20718457 0.15180863 0.030970631
0.0882839 -0.059613444 0.092483714 0.3318559 -0.08695039 0.06218847 -0.099328764 0.1142165
0.21767901 -0.079426 -0.05181453 0.057717077 -0.19318242 0.09380171 0.12027529 0.12493339
0.109432645 -0.08057336 0.14864972 -0.057788674 0.047622517 -0.16043285 -0.065739855 0.056838952
-0.14256756 -0.06516357 0.17412442 -0.102427855 -0.10263186 0.046573244 0.053704493 -0.08621397
0.09161131 -0.06480579 0.09734608 -0.058095958 0.046641573 -0.16454118 -0.08401248 -0.068433255
0.08784967 0.08249844 0.12904507 0.080645934 0.03676804 -0.14431769 -0.120665774 -0.04018365
-0.14891215 -0.13653037 -0.05858818 0.19002041 -0.15451656 -0.10237739 0.048045855 0.096416466
0.039597366 -0.11060575 0.084570624 0.21964814 -0.045539238 0.07240268 0.032978896 0.05608903
0.046430554 -0.14503251 -0.06583311 0.050580095 0.063836016 -0.1291109 -0.083637156 0.05471318
0.09783493 0.046463553 -0.06067144 0.09452706 -0.08613832 0.10128643 0.08480666 -0.12053096
-0.07884882 0.18576065 0.20196906 -0.09200362 0.06712735 0.040500432 -0.08202086 0.16574235
0.08762344 -0.1327929 -0.091670856 -0.16293979 0.040193196 -0.10534191 -0.06832815 -0.20510033
0.057146996 0.06991098 0.07802676 0.06938547 0.10224419 0.19154952 0.2743019 0.06893583
0.038319033 -0.09491605 -0.060041085 -0.045463994 -0.13149306 -0.043561522 0.03135795 0.17241675
-0.085033365 -0.10843399 -0.08875123 -0.06976205 0.075452745 0.16897655 0.08724267 0.0602781
-0.05380789 0.03832004 -0.12592436 0.15095796 0.015743904 -0.08190634 -0.058888126 0.0989601
0.03840893 -0.13560559 -0.10472503 0.09564544 0.23630273 0.05708515 -0.046974905 0.19927444
0.16658638 0.16665152 0.17443025 0.19268896 -0.13721472 -0.075606 0.02749652 0.03692859
0.077673815 0.04769362 -0.05653761 0.2172206 0.08154427 -0.08741912 -0.08971958 0.052198566
-0.09687405 0.07722784 0.059241734 -0.07087671 0.2002907 0.20259912 0.11348886 0.06701899
0.0513742 -0.10814885 0.035705425 0.08610793 0.090843506 -0.10034754 0.026747696 -0.1199651
0.1013369 0.093471475 -0.08388404 -0.09983104 -0.07305296 0.1520517 0.16988613 -0.07142999
-0.06266148 -0.12407569 0.0058004316 0.035618536 -0.08628741 0.07197883 0.05108192 -0.057314694
-0.099682525 -0.08580832 -0.09869346 0.033794098 0.05944163 0.058424402 -0.11818906 0.029993951
0.036314793 -0.14362554 -0.09589134 0.12754314 0.037572324 -0.20663103 -0.062415034 0.035786018
00000000: 2243 26bd 5bc4 a2bd dfb7 04be 161d 8d3d
00000010: 276e 2fbe 55b3 053e 9bc2 04be 55df 0e3e
00000020: 7fda e13d 3854 f9bd b380 703d c25f 553e
00000030: e994 af3d bc76 673d 61b5 813d 9827 b9bd
00000040: 4ef3 473e b664 743d c0ee d4bd 7a8a d63d
00000050: 863e 2b3e 2b2a 2a3e f6b1 993d af4e 2e3d
00000060: e16c 133d e547 82bd ca53 3f3d b981 5f3e
00000070: d81a 63bd 6f11 f6bd 4d55 32bd 8a8a 0f3e
00000080: 0d6c f8bd f852 2e3e 15f9 1d3d 16fb 02be
00000090: cae4 703d 2720 06be e604 e8bd d29e 1e3e
000000a0: 80fe 693e 7752 b2bd 57b2 27be 8630 4abe
000000b0: da16 393e 71ac b13d bcc9 a1bd 9f8b 2dbe
000000c0: 5672 a1bd 3107 3f3d 1b5d 2c3d 8927 b23d
000000d0: e77a 953d 3128 543e b973 1b3e 1fb6 fd3c
000000e0: 30ce b43d 3a2d 74bd 1a68 bd3d 04e9 a93e
000000f0: 0c13 b2bd 56b9 7e3d e16c cbbd 57ea e93d
00000100: 3fe7 5e3e 19aa a2bd 793b 54bd be68 6c3d
00000110: 9dd1 45be 1c1b c03d e452 f63d 14dd ff3d
00000120: 391e e03d a503 a5bd a237 183e d1b3 6cbd
00000130: d40f 433d 8248 24be 9ea2 86bd f6cf 683d
00000140: 3bfd 11be 7a74 85bd ac4d 323e b2c5 d1bd
00000150: a730 d2bd 96c3 3e3d 3ef9 5b3d f390 b0bd
00000160: b69e bb3d e6b8 84bd 625d c73d 07f6 6dbd
00000170: 3c0b 3f3d 7c7d 28be bc0e acbd bc26 8cbd
00000180: 87ea b33d f1f4 a83d 6424 043e b229 a53d
00000190: 169a 163d 04c8 13be 9e1f f7bd 9c97 24bd
000001a0: 6d7c 18be 9ece 0bbe 29fa 6fbd b694 423e
000001b0: 9739 1ebe 3dab d1bd bbcb 443d ff75 c53d
000001c0: d930 223d 4485 e2bd 5d33 ad3d 71eb 603e
000001d0: 5a87 3abd db47 943d e114 073d 9cbd 653d
000001e0: f72d 3e3d 6783 14be 82d3 86bd 132d 4f3d
000001f0: 75bc 823d a635 04be f549 abbd ed1a 603d
00000200: ae5d c83d 9150 3e3d 9e82 78bd 6797 c13d
00000210: 4a69 b0bd 436f cf3d 1daf ad3d f0d8 f6bd
00000220: 7d7b a1bd 0a38 3e3e fad0 4e3e 656c bcbd
00000230: 107a 893d c8e3 253d 8dfa a7bd 5db8 293e
00000240: eb73 b33d ddfa 07be eebd bbbd b0d9 26be
00000250: 9fa1 243d 80bd d7bd a1ef 8bbd d205 52be
00000260: f812 6a3d 7d2d 8f3d 7ecc 9f3d f819 8e3d
00000270: 6765 d13d 8f25 443e 4c71 8c3e 3a2e 8d3d
00000280: 6bf4 1c3d 5963 c2bd a4ed 75bd 7438 3abd
00000290: 1ea6 06be 916d 32bd 3271 003d 048e 303e
000002a0: f925 aebd a412 debd 34c3 b5bd 68df 8ebd
000002b0: f886 9a3d 3008 2d3e 49ac b23d 2be6 763d
000002c0: a965 5cbd 79f5 1c3d 51f2 00be b994 1a3e
000002d0: 5cf9 803c 83be a7bd ad34 71bd 98ab ca3d
000002e0: af52 1d3d 31dc 0abe 147a d6bd c2e1 c33d
000002f0: 58f9 713e 1ed2 693d c268 40bd 990e 4c3e
00000300: 9f95 2a3e b2a6 2a3e d89d 323e 4150 453e
00000310: 0482 0cbe 52d7 9abd 6240 e13c 6f42 173d
00000320: 7313 9f3d 635a 433d fb93 67bd 146f 5e3e
00000330: af00 a73d cc08 b3bd e6be b7bd 2ace 553d
00000340: e765 c6bd a129 9e3d 76a7 723d cf27 91bd
00000350: 0119 4d3e 2576 4f3e d96c e83d 4141 893d
00000360: c16d 523d 257d ddbd da3f 123d 5b59 b03d
00000370: 290c ba3d 0383 cdbd fc1d db3c 43b0 f5bd
00000380: b889 cf3d f96d bf3d 65cb abbd 3774 ccbd
00000390: ca9c 95bd 71b3 1b3e a1f6 2d3e e349 92bd
000003a0: a954 80bd 651b febd 8c11 be3b bee4 113d
000003b0: 74b7 b0bd a369 933d 463b 513d d0c2 6abd
000003c0: 5a26 ccbd 46bc afbd cc1f cabd ae6b 0a3d
000003d0: 1179 733d 6d4e 6f3d 1b0d f2bd e0b5 f53c
000003e0: d2be 143d 9312 13be ae62 c4bd ab9a 023e
000003f0: 70e5 193d 1697 53be e8a6 7fbd 5c94 123d
