checkpoint_actor.pth (torch_old, 154604 bytes, 6 tensors)

fc1.weight f4 [128, 33]
0.004371297 0.7493092 -0.2621989 0.18732928 0.97695506 -1.088796 0.38902473 -0.2956791
0.6793966 0.48640877 0.19172463 0.0022752567 0.16999538 0.08539613 -0.59341276 0.115623794
0.35134128 1.027821 -0.7815062 0.47601837 0.45087862 0.13298848 -0.23446792 0.21767412
-0.3470043 0.2016314 -0.15935715 0.43136358 -0.52320564 -0.073837355 -0.58414286 0.00088535994
2.0003324 0.62646234 0.88229007 0.3705707 -0.018214026 1.1289165 -0.7986515 1.5995493
-0.40344593 -1.1126643 -0.5918291 0.29799485 0.03476779 0.32934877 -0.20061949 -0.6811838
0.32177436 -0.35420462 -0.051720306 0.14137115 -0.15075439 0.119449675 0.07223099 0.301244
0.20174551 -0.27743423 0.09534295 -0.5212757 0.7699823 -0.2042815 0.06653067 -0.84979045
-0.06482692 -1.461076 0.0067618326 0.39443672 0.11604099 0.9545072 0.33022538 -1.2251755
-1.057375 -0.11188954 0.097337216 -0.33557233 -0.13693608 0.7487767 -0.077755734 -0.1781034
0.36541048 -0.55795974 -0.30435005 -0.566078 0.3690919 -0.8987221 -0.16621394 -0.05976128
-0.0010149075 0.41990998 0.17028229 0.2033976 -0.17461808 0.92980856 0.1842369 -0.071807906
-0.89926577 -0.07767145 1.1942251 -0.2074546 0.41956595 0.25254408 0.88631713 0.30078712
-0.53278995 0.2792754 0.26634073 -0.12731405 -0.19183291 0.12902404 0.10451135 -0.437506
0.7623381 0.4726893 0.13512947 0.21087478 0.32355994 0.21896552 0.18738177 0.3154449
-0.45155662 0.048453733 -0.25869155 -0.115488686 0.31143135 -0.5133828 0.1369526 0.21506211
0.084256716 -0.15830092 -0.05100229 1.5614524 -0.108565435 0.32219067 0.73688924 0.008368101
-0.24672464 0.12922715 0.78885376 -0.17302573 0.79581213 -0.09674436 -0.36141413 -0.076142274
0.052632347 -0.16404617 -0.4069567 0.43149513 -0.010592482 -0.77975625 0.12314206 -0.19456188
0.1147364 0.038376547 0.13046964 0.19691512 0.23393704 0.33398694 0.25965628 0.69918483
-0.26392126 -0.055558152 -0.7098788 -0.08733705 1.5867697 0.43443626 0.49725395 0.07657943
-0.6500081 0.81645906 -0.15873745 1.170474 0.28258815 -0.14893806 0.09335764 0.22854482
0.15521422 -0.20793734 0.3159525 -0.23812175 -0.7402613 -0.16666293 -1.3040437 0.8867837
-0.48812744 0.082445785 0.30411518 0.343501 -0.021707874 -0.0913373 -0.36078382 -0.73737645
0.61793864 0.21360444 0.030997112 -0.5669183 0.01090344 3.0728812 0.06309872 0.24713294
-0.61849844 -1.0254754 0.3972544 -0.47088566 -0.48376918 0.051077846 -0.7843845 0.19389641
-0.5745272 -0.17452808 0.13057122 -0.0124651715 0.54892755 0.5484178 0.014109601 -1.1169157
-0.4424641 -1.2565213 0.047470625 -0.32901275 0.29060447 -0.006896701 -0.016503245 0.33137262
-0.6103486 0.11923568 0.15126921 -0.08767036 -0.102060385 -0.05598061 1.3901647 -0.044261895
1.4611701 -0.07606306 -0.49238032 1.3520569 -0.83991915 -0.41476983 0.1966408 0.17480068
0.48298624 0.05004933 -0.2591654 0.46124125 -0.032524467 0.26237127 -0.60577273 0.335208
0.19846101 0.44023618 -0.10019305 0.36466178 -0.1576817 0.1440561 0.18418258 -0.38797098
00000000: 193d 8f3b bad2 3f3f ef3e 86be 3fd3 3f3e
00000010: ba19 7a3f ab5d 8bbf 402e c73e 4063 97be
00000020: f0ec 2d3f 920a f93e 7653 443e 791c 153b
00000030: 4513 2e3e 2be4 ae3d e6e9 17bf 2bcc ec3d
00000040: 01e3 b33e a38f 833f ca10 48bf aeb8 f33e
00000050: 90d9 e63e 222e 083e 5c18 70be f7e5 5e3e
00000060: 8caa b1be 7678 4e3e 852e 23be b0db dc3e
00000070: cef0 05bf 0a38 97bd 638a 15bf 8017 683a
00000080: 7205 0040 d65f 203f c3dd 613f 71bb bd3e
00000090: 9535 95bc 5680 903f 6d74 4cbf 08be cc3f
000000a0: 7790 cebe c96b 8ebf 1d82 17bf c892 983e
000000b0: ac68 0e3d 67a0 a83e 326f 4dbe 1062 2ebf
000000c0: 9cbf a43e 4f5a b5be acd8 53bd 99c3 103e
000000d0: 5c5f 1abe 08a2 f43d d7ed 933d a73c 9a3e
000000e0: 6096 4e3e dc0b 8ebe 2a43 c33d 5372 05bf
000000f0: 8f1d 453f 2b2f 51be 3b41 883d de8b 59bf
00000100: fac3 84bd 8a04 bbbf 5d92 dd3b 9cf3 c93e
00000110: e6a6 ed3d 955a 743f 4d13 a93e 8dd2 9cbf
00000120: 1058 87bf 5826 e5bd bc58 c73d 23d0 abbe
00000130: f938 0cbe d4af 3f3f 663e 9fbd bd60 36be
00000140: 1517 bb3e 73d6 0ebf c5d3 9bbe 7dea 10bf
00000150: 9df9 bc3e a712 66bf fd33 2abe 3ec8 74bd
00000160: a506 85ba 71fe d63e 7b5e 2e3e 7647 503e
00000170: 15cf 32be ef07 6e3f 99a8 3c3e 0610 93bd
00000180: 4836 66bf 3612 9fbd 5edc 983f fb6e 54be
00000190: 59d1 d63e 754d 813e aee5 623f c500 9a3e
000001a0: ec64 08bf 2ffd 8e3e d05d 883e 9d5e 02be
000001b0: d96f 44be e11e 043e 0c0a d63d c900 e0be
000001c0: 9728 433f 5504 f23e 615f 0a3e 8fef 573e
000001d0: a6a9 a53e 7f38 603e 02e1 3f3e fe81 a13e
000001e0: 6e32 e7be 6c77 463d 3873 84be 5585 ecbd
000001f0: ee73 9f3e 0e6d 03bf 4d3d 0c3e 3e39 5c3e
00000200: c98e ac3d a319 22be c7e7 50bd acdd c73f
00000210: 8e57 debd 2df6 a43e c6a4 3c3f 5c1a 093c
00000220: 62a5 7cbe 1f54 043e 52f2 493f a82d 31be
00000230: 58ba 4b3f e821 c6bd 460b b9be 7bf0 9bbd
00000240: 0495 573d b8fb 27be a15c d0be eeec dc3e
00000250: 178c 2dbc 1b9e 47bf e831 fc3d 3b3b 47be
00000260: ebfa ea3d ba30 1d3d d599 053e 1ea4 493e
00000270: 318d 6f3e 5600 ab3e abf1 843e c7fd 323f
00000280: b020 87be f290 63bd 9eba 35bf c4dd b2bd
00000290: 451b cb3f 6e6e de3e 1298 fe3e add5 9c3d
000002a0: ee66 26bf 7603 513f 128c 22be 18d2 953f
000002b0: 65af 903e 3883 18be 4a32 bf3d a707 6a3e
000002c0: 7af0 1e3e 87ed 54be 87c4 a13e 30d6 73be
000002d0: c481 3dbf b0a9 2abe e7ea a6bf 4204 633f
000002e0: d7eb f9be 56d9 a83d fcb4 9b3e 5ddf af3e
000002f0: b6d4 b1bc 0d0f bbbd a8b8 b8be b4c4 3cbf
00000300: 3a31 1e3f 1fbb 5a3e a8ed fd3c 8f21 11bf
00000310: 58a4 323c 16aa 4440 e739 813d 6b10 7d3e
00000320: ea55 1ebf c742 83bf ee64 cb3e ed17 f1be
00000330: 98b0 f7be 0137 513d 6ccd 48bf c88c 463e
00000340: 3714 13bf 7db7 32be 76b4 053e b83a 4cbc
00000350: 8486 0c3f 1c65 0c3f f52b 673c 18f7 8ebf
00000360: a88a e2be b1d5 a0bf 8f70 423d 5c74 a8be
00000370: 1cca 943e b9fd e1bb d031 87bc aca9 a93e
00000380: ce3f 1cbf d631 f43d 51e6 1a3e 858c b3bd
00000390: 0905 d1bd ed4b 65bd ebf0 b13f f64b 35bd
000003a0: 9f07 bb3f f3c6 9bbd 4619 fcbe 3310 ad3f
000003b0: f104 57bf b65c d4be 355c 493e f3fe 323e
000003c0: f949 f73e 8700 4d3d 54b1 84be d027 ec3e
000003d0: 6038 05bd 8755 863e ec13 1bbf 62a0 ab3e
000003e0: 5d39 4b3e a366 e13e 0432 cdbd f3b4 ba3e
000003f0: 5077 21be 7183 133e 5c9a 3c3e 22a4 c6be

fc1.bias f4 [128]
-0.47569996 -0.82727134 -0.85677975 -0.14451656 -0.587451 -0.5640214 -0.19996016 -0.23103109
-0.5215757 -0.32539192 -0.87751436 -0.070570186 -0.98636043 -0.27627265 -0.4992835 -0.15048036
0.19753292 -0.85291374 -0.051148705 -0.39173633 -0.72027963 -0.63134384 -0.61106604 -0.4475845
-0.277227 -0.16828682 -0.17760764 -0.4432773 -0.19783875 -0.13720496 -0.575283 -0.3115926
0.53651845 0.25066042 -0.1252878 -1.0046295 0.31156048 -0.96022266 -0.63588154 -0.54036176
-0.4696232 -0.05280471 -0.22958124 -0.49831268 -0.28150705 -0.42969874 -0.7209438 -0.2681734
-0.6951864 -0.44677532 -0.4751628 -0.2743335 -0.92194945 -0.40820873 -0.3129602 -0.2770078
-0.46575958 -0.44048896 -0.16011658 0.06890707 -0.775381 -0.21048728 0.32411456 -0.61778563
-0.37542084 -0.023730107 -0.22470248 -0.66597056 -0.690934 -0.5818006 -1.1988331 -0.4833851
-0.27954355 -0.37737736 -0.8452901 -0.2971982 -0.04066753 -0.14284153 -0.62845963 -0.60260785
-0.099840134 -0.35816282 -1.0376081 -0.98752517 -0.76027054 -0.872292 -0.28252771 -0.4301874
-0.43777302 -0.2623186 -1.2564496 -0.86454636 -0.23580948 -0.17875363 -0.91824925 -0.1553619
-0.32947648 -0.34753355 -0.25531518 -0.5382647 -0.40624365 -1.0318097 -0.22242717 -0.58765507
0.009618389 -0.4305268 -0.3033524 -0.07248358 0.019472329 -0.67268693 -0.2725282 -0.89470226
-0.49978918 -0.637232 -0.5491656 -0.84486705 -0.31722736 -0.44244215 -0.6835851 -0.46704793
-0.9665036 -0.55326295 -0.3092767 -0.58921146 -0.22767358 -0.45855135 -0.42078748 -0.9191466
00000000: f28e f3be 0ec8 53bf eb55 5bbf 26fc 13be
00000010: 3063 16bf b563 10bf 5bc2 4cbe 6a93 6cbe
00000020: fc85 05bf c599 a6be c8a4 60bf 1a87 90bd
00000030: 1e82 7cbf 9c73 8dbe 16a2 ffbe 8617 1abe
00000040: 1246 4a3e 8e58 5abf 4e81 51bd aa91 c8be
00000050: 3f64 38bf c09f 21bf d36e 1cbf cc29 e5be
00000060: b3f0 8dbe 6153 2cbe c7de 35be 3ef5 e2be
00000070: 3e96 4abe 757f 0cbe bf45 13bf 1189 9fbe
00000080: 4659 093f 9056 803e 724b 00be b397 80bf
00000090: db84 9f3e 27d1 75bf 22c9 22bf 2655 0abf
000000a0: 7472 f0be c049 58bd 5817 6bbe d722 ffbe
000000b0: b121 90be 7901 dcbe c68f 38bf 064e 89be
000000c0: bcf7 31bf bcbf e4be 8a48 f3be 7175 8cbe
000000d0: e104 6cbf bc00 d1be 523c a0be f7d3 8dbe
000000e0: 0a78 eebe c587 e1be 9af5 23be 261f 8d3d
000000f0: 5f7f 46bf fa89 57be 58f2 a53e 3327 1ebf
00000100: 2937 c0be a465 c2bc 6818 66be 0c7d 2abf
00000110: 0de1 30bf e2f0 14bf 5d73 99bf 407e f7be
00000120: 5520 8fbe 9b37 c1be ef64 58bf 5d2a 98be
00000130: ff92 26bd 0d45 12be bbe2 20bf 8244 1abf
00000140: fc78 ccbd 1e61 b7be 58d0 84bf 73ce 7cbf
00000150: 17a1 42bf 874e 5fbf 79a7 90be 8641 dcbe
00000160: c923 e0be a04e 86be 57d3 a0bf e952 5dbf
00000170: 0a78 71be 310b 37be 6212 6bbf 3117 1fbe
00000180: 24b1 a8be ebef b1be acb8 82be b7cb 09bf
00000190: 2bff cfbe 5712 84bf f3c3 63be 9070 16bf
000001a0: 7396 1d3c 026e dcbe 0151 9bbe 4572 94bd
000001b0: 6f84 9f3c 3635 2cbf d188 8bbe 350b 65bf
000001c0: 5ee4 ffbe a321 23bf 1e96 0cbf 3549 58bf
000001d0: a06b a2be c787 e2be 6fff 2ebf e820 efbe
000001e0: c86c 77bf a4a2 0dbf 8459 9ebe 90d6 16bf
000001f0: 4323 69be 3ec7 eabe 7571 d7be 314d 6bbf

fc2.weight f4 [256, 128]
-0.0689068 -0.029583678 0.0019700134 -0.060107015 -0.04317195 -0.0037019856 -0.061517935 -0.06156537
0.029917981 -0.037403654 -0.043990996 -0.032895353 0.056327146 -0.026126737 -0.06473263 -0.07738647
-0.08499908 -0.0058130557 -0.09084288 -0.034876186 -0.032671764 -0.04329757 -0.016155558 0.051696736
-0.034604628 -0.059274428 -0.101310894 -0.1257258 0.035559185 -0.060303167 0.034016803 -0.13067284
0.024716696 0.022293027 0.035012983 -0.0004099733 -0.100061595 0.018851703 -0.0014481238 -0.14066052
-0.00024528854 -0.11338932 -0.02122176 -0.116709046 0.048082683 -0.022727301 -0.06493574 0.008299363
0.08146409 0.054032564 -0.01878569 0.048158303 -0.011159923 -0.034473862 -0.042147372 0.008486903
0.018912567 -0.015490336 -0.02164713 -0.056069322 -0.065898195 -0.09862042 -0.024626652 -0.054896336
-0.06978447 -0.0074918517 -0.11667792 -0.0045595453 -0.05390727 -0.042342987 0.04391105 -0.05708791
-0.16315207 0.04050481 -0.0761139 -0.007998465 0.0312479 0.0031108444 -0.058567565 -0.078911096
0.030067699 -0.0059738676 -0.014098474 -0.0069736983 -0.011431071 -0.03287476 -0.0749739 -0.047263935
-0.06834845 -0.035465308 0.03778003 0.0032248602 0.004196063 -0.05232376 0.035937343 -0.04635875
0.00019704718 -0.00016872297 -0.030359162 -0.052114945 0.009780776 -0.007947154 -0.073008806 0.06628936
0.020456625 0.013143092 0.027480109 -0.13471085 -0.067986496 0.029596051 -0.04576083 -0.02334411
-0.0054388847 0.025078759 0.012902643 -0.019810097 -0.0009030983 -0.034000717 -0.018379783 0.001243466
-0.054807067 -0.0569527 0.028321289 -0.0645568 -0.020110859 0.0071132123 -0.025413314 0.027301025
-0.06284397 0.051552184 0.012766849 0.010420489 -0.02163087 -0.053168036 0.0031512538 -0.04083414
-0.033752106 0.011701435 -0.038122702 -0.07924538 0.042231034 -0.121864766 -0.06681989 -0.11146363
-0.09229568 -0.12220324 -0.090168916 0.02324109 0.028473409 -0.06898727 0.011232727 0.0027818186
0.053608656 -0.03335361 -0.030806283 -0.02736973 0.059234038 0.0043858155 -0.046367384 -0.1335035
-0.0500664 -0.022818992 -0.06319139 0.08828376 -0.011349471 -0.0053742337 -0.019031085 -0.06724234
-0.07765658 -0.023091465 -0.011802212 -0.067346595 0.053230204 -0.032999232 -0.034972165 0.0319299
-0.040369462 0.052610047 -0.016138913 0.05859695 -0.006330766 0.048191227 -0.035898853 -0.032514267
-0.049188405 0.029337484 -0.01966969 -0.015655084 -0.023081454 -0.08601769 -0.1422955 -0.10563113
-0.10053033 -0.06900312 -0.053501647 -0.038789343 0.07222162 -0.09319052 0.047533076 -0.026655009
-0.058166005 0.009176455 -0.12976782 -0.048828937 0.04023792 -0.05602894 0.02956204 -0.08108941
-0.03830538 -0.12092262 0.0014049994 -0.026051141 -0.069555335 0.039610926 -0.045187097 -0.021827266
-0.008166774 -0.027278947 -0.02430754 0.0010749184 -0.052428175 -0.099499054 0.009237184 -0.014263368
0.02790456 -0.022040507 -0.05423606 0.0020550317 0.04645714 0.03413486 0.023959475 0.011128155
-0.03862978 -0.035438888 -0.056665465 -0.10144441 -0.008304044 -0.030971056 -0.028923463 -0.06486304
-0.15204394 -0.044924613 0.030376546 -0.003957945 -0.028784828 -0.02957712 -0.06684329 -0.07562343
-0.03344701 -0.07886936 0.01466106 -0.039993297 0.013460717 -0.07300575 -0.09642027 -0.10494763
00000000: 021f 8dbd 7859 f2bc 571b 013b c632 76bd
00000010: 12d5 30bd 039d 72bb 3bfa 7bbd f82b 7cbd
00000020: 8e16 f53c 9334 19bd e72f 34bd 47bd 06bd
00000030: 4bb7 663d bd07 d6bc 8b92 84bd cc7c 9ebd
00000040: ff13 aebd 727b bebb d50b babd 55da 0ebd
00000050: d4d2 05bd cb58 31bd a958 84bc f5bf 533d
00000060: 95bd 0dbd bec9 72bd 167c cfbd 44be 00be
00000070: 82a6 113d 7400 77bd 3455 0b3d 1acf 05be
00000080: ab7a ca3c de9f b63c c669 0f3d aff1 d6b9
00000090: 18ed ccbd e36e 9a3c f9ce bdba 5009 10be
000000a0: 129a 80b9 a938 e8bd 42d9 adbc 2705 efbd
000000b0: 59f2 443d 9b2e babc 07fd 84bd 0dfa 073c
000000c0: a5d6 a63d 4051 5d3d 73e4 99bc a441 453d
000000d0: 1cd8 36bc 7734 0dbd b9a2 2cbd a70c 0b3c
000000e0: 87ee 9a3c 2ecb 7dbc 5255 b1bc f2a8 65bd
000000f0: a2f5 86bd 81f9 c9bd d5bd c9bc fbda 60bd
00000100: 29eb 8ebd 357e f5bb d5f4 eebd 3d68 95bb
00000110: dfcd 5cbd d76f 2dbd 13dc 333d 03d5 69bd
00000120: 5611 27be 5fe8 253d 9be1 9bbd fe0b 03bc
00000130: 99fb ff3c 4fdf 4b3b 8be4 6fbd 249c a1bd
00000140: 8950 f63c 6fc0 c3bb 49fd 66bc 9f83 e4bb
00000150: 6349 3bbc afa7 06bd eb8b 99bd d497 41bd
00000160: 46fa 8bbd 1244 11bd 3cbf 1a3d 2d58 533b
00000170: 217f 893b 7051 56bd 0933 133d ace2 3dbd
00000180: 739e 4e39 3aeb 30b9 c7b3 f8bc 7b76 55bd
00000190: 8c3f 203c c834 02bc a485 95bd b7c2 873d
000001a0: a794 a73c 2056 573c f71d e13c a4f1 09be
000001b0: 813c 8bbd 6b73 f23c b56f 3bbd 263c bfbc
000001c0: ac38 b2bb f871 cd3c 9b65 533c c948 a2bc
000001d0: e7bd 6cba 5644 0bbd 3391 96bc ccfb a23a
000001e0: 607d 60bd 3c47 69bd 0c02 e83c 5b36 84bd
000001f0: 87bf a4bc f315 e93b 952f d0bc 66a6 df3c
00000200: 57b4 80bd 6228 533d 0c2c 513c b3ba 2a3c
00000210: 3933 b1bc bac6 59bd 4485 4e3b b341 27bd
00000220: a63f 0abd 60b7 3f3c 8d26 1cbd 674b a2bd
00000230: 73fa 2c3d 3c94 f9bd ded8 88bd 0b47 e4bd
00000240: 8405 bdbd b145 fabd 7baa b8bd 1964 be3c
00000250: 1141 e93c 3349 8dbd 7909 383c 2c4f 363b
00000260: c094 5b3d cc9d 08bd 755d fcbc 7c36 e0bc
00000270: 649f 723d e3b6 8f3b baeb 3dbd 24b5 08be
00000280: 6d12 4dbd e5ee babc 7d6a 81bd 1ece b43d
00000290: 22f3 39bc 571a b0bb 14e7 9bbc 5ab6 89bd
000002a0: 6a0a 9fbd 502a bdbc 115e 41bc 03ed 89bd
000002b0: ea07 5a3d 342a 07bd f93e 0fbd edc8 023d
000002c0: 735a 25bd a27d 573d c135 84bc 5b03 703d
000002d0: 5072 cfbb 2a64 453d ad0a 13bd ae2d 05bd
000002e0: c879 49bd 2a55 f03c 5422 a1bc 173f 80bc
000002f0: 5115 bdbc 0b2a b0bd e9b5 11be 2255 d8bd
00000300: d8e2 cdbd 8251 8dbd 8b24 5bbd 93e1 1ebd
00000310: eee8 933d acda bebd 0bb2 423d 9b5b dabc
00000320: 7a3f 6ebd d858 163c dbe1 04be da00 48bd
00000330: 84d0 243d 9a7e 65bd 172c f23c 3412 a6bd
00000340: 1ae6 1cbd 47a6 f7bd f527 b83a 3469 d5bc
00000350: 0773 8ebd 113f 223d 1b16 39bd 18cf b2bc
00000360: efcd 05bc 1978 dfbc 9b20 c7bc 47e4 8c3a
00000370: edbe 56bd 29c6 cbbd 8f57 173c e7b0 69bc
00000380: 1b98 e43c 4b8e b4bc a126 5ebd b6ad 063b
00000390: d849 3e3d ffd0 0b3d a946 c43c dd52 363c
000003a0: 433a 1ebd 5e28 11bd 0c1a 68bd 16c2 cfbd
000003b0: af0d 08bc 03b7 fdbc e6f0 ecbc ead6 84bd
000003c0: 68b1 1bbe df02 38bd 3cd8 f83c a6b1 81bb
000003d0: 29ce ebbc b74b f2bc 23e5 88bd 75e0 9abd
000003e0: bbff 08bd 4286 a1bd f134 703c 03d0 23bd
000003f0: 578a 5c3c 0a84 95bd fe77 c5bd c8ee d6bd

fc2.bias f4 [256]
0.06497539 -0.019007042 -0.111442685 -0.09062796 0.17466344 -0.3171461 -0.2536703 -0.10022585
-0.06469884 -0.122730814 -0.24371974 -0.24154565 -0.769906 -0.5282532 -0.07072107 -0.022408905
-0.066427514 -0.5201751 0.06949866 -0.2563654 -0.27809852 -0.34058893 -0.38100177 0.029625624
-0.01283011 -0.15918148 0.04735798 -0.102757536 0.23725471 -0.10330372 -0.8720223 0.10534464
-0.2782543 -0.05436138 -0.03113393 -0.1081305 0.005830239 -0.38265732 -0.45532835 0.16246808
0.027467662 -0.0033981134 0.10159179 -0.21038575 0.0007533924 -0.045789253 -0.28810793 -0.13804094
-0.2864474 -0.08367978 -0.6696136 0.24232769 -0.32952553 -0.16891901 0.015076788 0.021316309
-0.1468927 -0.46318045 -0.73357177 -0.3180975 -0.24777724 0.06020746 -0.47152662 -0.11694346
-0.39934167 -0.61105704 -0.08324321 0.022524709 -0.4905145 -0.114688896 -0.0056329113 -0.050967094
-0.04916037 -0.11686374 -0.65452266 -0.39234534 -0.15182231 0.07331513 -0.74696237 -0.5157612
-0.48961908 -0.38788807 -0.43239278 -0.059658863 0.064875476 -0.017156867 -0.45663574 -0.035660636
0.014726295 -0.85612774 0.08479646 -0.16486692 -0.73407847 -0.31808934 0.010775257 -0.7380832
-0.38763696 0.22637822 -0.06569958 -0.7030171 -0.5311042 -0.061143782 -0.15201801 -0.30673304
0.018293506 -0.41521335 -0.09187164 -0.49792695 0.006017824 -0.43866813 -0.4629055 -0.03342437
-0.41960436 0.016252205 0.1878124 -0.08559275 0.26043293 0.083508916 -0.3560633 -0.06597447
-0.101522125 -0.27344003 -0.07491754 -0.17321338 -0.33766326 -0.38263628 -0.36880976 -0.051054973
0.30674687 -0.021424577 -0.32708147 -0.2108006 -0.2923561 0.23797719 -0.78920645 -0.36542714
-0.40590554 -0.5692871 -0.42024168 0.17873694 -0.05676892 -0.018121984 -0.056754988 -0.17297652
-0.13566141 0.12851353 -0.18450259 -0.14896907 0.024628555 -0.39229733 -0.1601251 -0.16922212
-0.42796192 0.18274283 -0.45281887 0.11839684 -0.42768183 -0.45469192 -0.08985129 -0.10241926
-0.04660883 -0.24597347 -0.0405099 0.11957277 -0.08909507 -0.19527066 0.034611225 -0.108192004
0.021520613 -0.36188504 -0.10204569 0.0125543 -0.42532828 -0.71187365 -0.24707611 -0.40694234
0.06391525 -0.49199426 -0.05047969 -0.2397479 0.10904338 -0.016010437 -0.077902995 0.07173283
0.072300434 0.045570876 -0.06662427 -0.46747383 -0.40800723 0.05550194 -0.06689912 -0.28312522
-0.6151678 -0.069906585 0.017276393 -0.07322711 -0.37738505 0.055984836 -0.25160584 0.025535556
-0.4747137 -0.082515545 -0.063054316 -0.43756652 -0.09641001 -0.05616031 -0.19843237 -0.07604762
-0.045518037 0.11422951 -0.31535864 -0.18185452 -0.24332121 -0.3974584 -0.36218193 -0.03676376
-0.30203247 -0.13869351 -0.024291113 -0.32048234 -0.25252786 -0.53932863 0.012460754 -0.91407585
-0.31065497 0.008799681 -0.58828723 -0.1275205 0.22802572 -0.070855364 -0.18634197 0.02154016
-0.08659458 -0.6316516 -0.6016175 -0.056432296 -0.07448545 -0.08370862 0.012152192 0.034881327
-0.025695287 0.045952883 -0.22609046 -0.66349447 0.093689054 -0.055060126 0.32466394 0.01052325
-0.62297803 -0.07745444 -0.33789754 -0.094326265 -0.06185049 -0.08154387 -0.21580324 0.13204929
00000000: d111 853d a8b4 9bbc 103c e4bd 279b b9bd
00000010: f9da 323e f960 a2be 13e1 81be 3643 cdbd
00000020: d380 84bd 4b5a fbbd ab91 79be be57 77be
00000030: 8f18 45bf 9a3b 07bf 35d6 90bd e192 b7bc
00000040: 260b 88bd 322a 05bf 5055 8e3d 5342 83be
00000050: ee62 8ebe ac61 aebe aa12 c3be 70b1 f23c
00000060: 6235 52bc 7800 23be 71fa 413d 8b72 d2bd
00000070: e6f2 723e e790 d3bd da3c 5fbf eebe d73d
00000080: 5977 8ebe 0aaa 5ebd 950c ffbc 8673 ddbd
00000090: 970b bf3b a9eb c3be cc20 e9be 085e 263e
000000a0: dd03 e13c e2b2 5ebb 5b0f d03d 5d6f 57be
000000b0: 4f7f 453a 838d 3bbd e282 93be 9b5a 0dbe
000000c0: 3ca9 92be 4e60 abbd cc6b 2bbf c024 783e
000000d0: 92b7 a8be 1bf9 2cbe a204 773c 8a9f ae3c
000000e0: 0a6b 16be fd25 edbe 5ccb 3bbf addd a2be
000000f0: 51b9 7dbe 199c 763d f06b f1be 0e80 efbd
00000100: 8376 ccbe 3c6e 1cbf 6b7b aabd bd85 b83c
00000110: b724 fbbe 03e2 eabd 4994 b8bb dfc2 50bd
00000120: 625c 49bd 4256 efbd cc8e 27bf 7de1 c8be
00000130: 4f77 1bbe 3e26 963d ed38 3fbf ed08 04bf
00000140: 5aaf fabe 4499 c6be 9662 ddbe da5c 74bd
00000150: 6fdd 843d 8f8c 8cbc 29cc e9be e310 12bd
00000160: 8f46 713c 302b 5bbf c4a9 ad3d e0d2 28be
00000170: 91ec 3bbf 9bdc a2be b48a 303c 05f3 3cbf
00000180: 5a78 c6be b1cf 673e 808d 86bd eef8 33bf
00000190: 72f6 07bf e771 7abd 9caa 1bbe 1d0c 9dbe
000001a0: 43dc 953c d896 d4be 3327 bcbd 48f0 febe
000001b0: 2b31 c53b 1c99 e0be f301 edbe fee7 08bd
000001c0: 62d6 d6be 5823 853c e551 403e 404b afbd
000001d0: 7757 853e b906 ab3d ee4d b6be 9f1d 87bd
000001e0: d5ea cfbd 5500 8cbe 5e6e 99bd d95e 31be
000001f0: 33e2 acbe e7e8 c3be a2d4 bcbe 051f 51bd
00000200: ed0d 9d3e 9882 afbc 3977 a7be 1ddc 57be
00000210: b3af 95be 4bb0 733e 6f09 4abf 4419 bbbe
00000220: dad2 cfbe cdbc 11bf eb29 d7be d106 373e
00000230: 8786 68bd 8e74 94bc eb77 68bd c220 31be
00000240: d3ea 0abe 0d99 033e 3fee 3cbe 598b 18be
00000250: d3c1 c93c 32db c8be d6f7 23be 9048 2dbe
00000260: d31d dbbe f020 3b3e e0d7 e7be 0b7a f23d
00000270: 1df9 dabe 61cd e8be f403 b8bd 30c1 d1bd
00000280: e7e8 3ebd 78e0 7bbe b5ed 25bd 92e2 f43d
00000290: 7a77 b6bd 08f5 47be 80c4 0d3d c593 ddbd
000002a0: ff4b b03c ff48 b9be 55fd d0bd 8db0 4d3c
000002b0: a1c4 d9be 5a3d 36bf 8501 7dbe bf5a d0be
000002c0: 00e6 823d ace6 fbbe cbc3 4ebd 7980 75be
000002d0: 2352 df3d 5228 83bc 9b8b 9fbd a9e8 923d
000002e0: 4012 943d 87a8 3a3d 4e72 88bd bb58 efbe
000002f0: 53e6 d0be 0156 633d 6802 89bd caf5 90be
00000300: a37b 1dbf 2f2b 8fbd 3987 8d3c 18f8 95bd
00000310: 9d38 c1be 5b50 653d 7bd2 80be f12f d13c
00000320: ad0d f3be e9fd a8bd 9f22 81bd b808 e0be
00000330: 9c72 c5bd 5a08 66bd db31 4bbe dbbe 9bbd
00000340: 1f71 3abd 29f1 e93d b076 a1be 1238 3abe
00000350: 3229 79be ab7f cbbe e96f b9be 9995 16bd
00000360: 00a4 9abe ac05 0ebe 28fe c6bc 4316 a4be
00000370: 554b 81be 7111 0abf 3128 4c3c e000 6abf
00000380: 2b0e 9fbe 8a2c 103c fe99 16bf bc94 02be
00000390: 937f 693e 9e1c 91bd 6ed0 3ebe fd74 b03c
000003a0: 8058 b1bd ebb3 21bf 9b03 1abf 8d25 67bd
000003b0: d48b 98bd 6d6f abbd fd19 473c b9df 0e3d
000003c0: ec7e d2bc 1739 3c3d 4284 67be c6da 29bf
000003d0: 0ce0 bf3d ba86 61bd 5a3a a63e b669 2c3c
000003e0: 7d7b 1fbf 6fa0 9ebd e800 adbe 212e c1bd
000003f0: f056 7dbd 7900 a7bd 86fb 5cbe ee37 073e

fc3.weight f4 [4, 256]
0.026094168 0.025888817 0.013430743 -0.112784125 0.017686164 -0.20557989 0.4629573 0.11691702
0.11940086 0.49354526 0.5472906 0.34420484 0.32466373 0.18161167 -0.50668937 0.26439518
0.006732257 -0.078428 -0.17607976 -1.0205593 0.23346935 0.5775141 0.16359675 0.29609922
-0.5176846 0.36822248 0.021935616 0.034439985 -0.039103776 -0.031077135 0.34435576 -0.43922085
0.13504438 0.07607878 -0.43053102 -0.038167078 0.026787112 -0.09773611 -0.08476064 -0.22896606
0.012876583 0.021939214 -0.19994763 0.22047506 0.019077964 0.0020583686 -1.0002093 0.08927128
0.12835628 0.09644073 0.0910394 0.018265894 0.104887545 -0.8321211 0.19481297 -0.2134089
-0.37314755 0.16497187 0.4187094 -0.020590704 -0.4261412 -0.29627258 0.21919508 -0.024365865
-0.2338988 -0.097659215 -0.12809728 -0.02980967 -0.017057018 -0.50147295 0.027692502 0.026224136
0.0005247562 0.026305139 0.14072615 -0.20504582 0.0019894417 -0.31445658 -0.08893806 -0.20135179
0.0015820585 0.14265172 -0.13855681 -0.035690144 0.40807515 -0.33549345 -0.035402216 -0.03888344
-0.5925315 0.65229857 -0.062112775 0.17474532 -0.033427734 0.10617398 -0.19227675 -0.02335076
-0.0818324 -0.1613482 0.025323505 0.32029262 -0.693898 0.039891504 0.04876504 0.075776905
0.09762109 0.033770073 0.19838974 0.35141197 0.029634785 0.022745049 0.04249537 0.019945186
0.013730083 0.028357554 -0.28984654 0.19402307 -0.20257308 0.21124682 0.06456368 0.026501963
-0.34729424 -0.019147752 0.02533115 -0.08460211 -0.416177 -0.4555088 0.40858108 0.17553958
0.1729934 -0.29663655 0.5888812 -0.4049704 0.3893282 -0.13179405 0.27003562 0.31305355
0.8978312 0.13786162 0.9157004 0.14484309 0.02482826 0.023684079 0.016994983 -0.042226564
0.042852018 0.031587463 0.3069017 0.110554054 0.012300798 0.18235327 0.012328188 -0.1480702
0.3829833 -0.111573175 0.2183495 0.42347816 0.18052961 -0.13577552 -0.07018457 0.09249987
0.024566853 0.21732432 0.01578863 -0.18563841 0.0026073437 -0.71104634 0.40361878 0.023325983
0.004940054 0.026540048 0.05753706 -0.002090003 -0.2468708 0.56630325 0.17578569 0.70087844
0.30357036 0.4230034 0.03610221 -0.4993834 -0.5377208 0.014514393 0.00859217 0.15207702
-0.022909429 0.051170852 0.07030115 0.14445251 -0.082964316 0.23050879 0.3468836 0.3886298
0.37497556 0.0019042112 -0.064326555 0.025754187 0.088830784 0.5078975 -0.5218567 0.02625362
-0.010138928 0.05383426 0.02419841 -0.12513037 0.008057502 0.23746653 -0.36924616 0.91469276
-0.14644155 0.12217654 0.38381526 -0.24291429 0.11806308 -0.5567512 -0.010431381 0.37793875
-0.94918156 -0.5233456 -0.24578172 -0.2140038 0.52012604 -0.061191496 0.023310235 0.038557578
0.45977062 0.024927787 0.071253695 -0.0022796837 0.045224063 -0.19226073 0.4030251 0.046010736
0.0025923345 -0.2544968 0.38545564 -0.0050595654 0.02442517 -0.3885278 0.015196014 0.023677804
0.44742537 -0.5218859 0.61659664 0.33244568 0.14904468 -0.0008229114 -0.07503728 0.5033712
-0.14616677 0.02881109 0.21046954 -0.018486537 -0.16345449 0.050233573 -0.61452556 -0.2908058
00000000: 70c3 d53c c914 d43c 9e0c 5c3c 5dfb e6bd
00000010: 93e2 903c 8983 52be bd08 ed3e 3172 ef3d
00000020: 7088 f43d f7b1 fc3e 3d1b 0c3f 9e3b b03e
00000030: 533a a63e 69f8 393e 65b6 01bf ce5e 873e
00000040: 449a dc3b dc9e a0bd 414e 34be b0a1 82bf
00000050: 9712 6f3e f7d7 133f e885 273e 519a 973e
00000060: fa86 04bf a887 bc3e 52b2 b33c f110 0d3d
00000070: 482b 20bd 7a95 febc 664f b03e 8ee1 e0be
00000080: 1349 0a3e 31cf 9b3d 906e dcbe 1555 1cbd
00000090: a570 db3c df29 c8bd fd96 adbd 1476 6abe
000000a0: 4ef8 523c deb9 b33c 12bf 4cbe 37c4 613e
000000b0: 6449 9c3c b2e5 063b dc06 80bf dcd3 b63d
000000c0: d46f 033e b882 c53d dd72 ba3d 5ba2 953c
000000d0: 48cf d63d e305 55bf 0d7d 473e dd87 5abe
000000e0: 320d bfbe 63ee 283e 1461 d63e d6ad a8bc
000000f0: 2e2f dabe 0ab1 97be ad74 603e ec9a c7bc
00000100: 2b83 6fbe 8e01 c8bd ef2b 03be 6933 f4bc
00000110: 29bb 8bbc 8860 00bf 63db e23c 00d4 d63c
00000120: cb8f 093a e07d d73c 841a 103e 88f7 51be
00000130: 4b61 023b 7400 a1be 2825 b6bd 2a2f 4ebe
00000140: 135d cf3a 4b13 123e d6e1 0dbe d42f 12bd
00000150: 3aef d03e ccc5 abbe ea01 11bd 3e44 1fbd
00000160: 25b0 17bf 0afd 263f f769 7ebd 70f0 323e
00000170: 85eb 08bd be71 d93d 32e4 44be 184a bfbc
00000180: bf97 a7bd 7638 25be 3d73 cf3c 65fd a33e
00000190: 4da3 31bf 4665 233d dabd 473d ec30 9b3d
000001a0: 91ed c73d 7d52 0a3d ae26 4b3e 45ec b33e
000001b0: a6c4 f23c d353 ba3c a00f 2e3d 1664 a33c
000001c0: 24f4 603c 1a4e e83c c466 94be fcad 463e
000001d0: 516f 4fbe 1651 583e f639 843d a51a d93c
000001e0: 8dd0 b1be bfdb 9cbc 4683 cf3c df43 adbd
000001f0: 2715 d5be 7338 e9be 8a31 d13e a6c0 333e
00000200: 2f25 313e bfe0 97be ebc0 163f 4858 cfbe
00000210: 0756 c73e 05f5 06be 1c42 8a3e 8e48 a03e
00000220: 44d8 653f 992b 0d3e 576b 6a3f bf51 143e
00000230: a364 cb3c 1d05 c23c 1039 8b3c c3f5 2cbd
00000240: 9985 2f3d db61 013d 3822 9d3e 2a6a e23d
00000250: 4989 493c d1ba 3a3e 2bfc 493c b79f 17be
00000260: 6316 c43e 7a80 e4bd 0397 5f3e 21d2 d83e
00000270: c1dc 383e bd08 0bbe eebc 8fbd 9270 bd3d
00000280: 6d40 c93c 448a 5e3e 2857 813c ff17 3ebe
00000290: f8df 2a3b 2207 36bf 1fa7 ce3e 2216 bf3c
000002a0: 2de0 a13b 846a d93c fbab 6b3d 6ff8 08bb
000002b0: b3cb 7cbe 40f9 103f 2a01 343e c56c 333f
000002c0: 936d 9b3e e793 d83e e9df 133d 2eaf ffbe
000002d0: 12a8 09bf c7cd 6d3c 2cc6 0c3c 14ba 1b3e
000002e0: 8eac bbbc 8798 513d 0dfa 8f3d 5ceb 133e
000002f0: 32e9 a9bd 7f0a 6c3e ba9a b13e 7cfa c63e
00000300: ccfc bf3e ba96 f93a a4bd 83bd 72fa d23c
00000310: eaec b53d 9205 023f 6798 05bf d511 d73c
00000320: bf1d 26bc 5081 5c3d be3b c63c 2d22 00be
00000330: 9d03 043c 6d2a 733e d50d bdbe 4e29 6a3f
00000340: c6f4 15be b237 fa3d 6f83 c43e 86be 78be
00000350: 0ecb f13d 3f87 0ebf 62e8 2abc 3081 c13e
00000360: 90fd 72bf faf9 05bf 34ae 7bbe d023 5bbe
00000370: fb26 053f efa3 7abd 1bf5 be3c 8dee 1d3d
00000380: 0e67 eb3e 5c35 cc3c 75ed 913d bf66 15bb
00000390: de3c 393d ffdf 44be 4e59 ce3e c175 3c3d
000003a0: 28e4 293b 684d 82be 715a c53e b6ca a5bb
000003b0: 4b17 c83c 1eed c6be b4f8 783c f4f7 c13c
000003c0: f014 e53e 509a 05bf 47d9 1d3f 5236 aa3e
000003d0: 2b9f 183e a6b8 57ba 25ad 99bd efdc 003f
000003e0: beac 15be 3c05 ec3c 5485 573e 1471 97bc
000003f0: 9d60 27be b8c1 4d3d 8c51 1dbf 7fe4 94be

fc3.bias f4 [4]
-0.19497067 -0.14077547 -0.06847565 0.26216534
00000000: 64a6 47be 7227 10be f63c 8cbd 893a 863e
