ma-checkpoint_critic.pth (torch_old, 155616 bytes, 5 tensors)

fc1.weight f4 [128, 33]
000000 7c ee 05 3c 6c 55 97 3d b9 7a e1 3d ce a2 bf bc
       0.008174535 0.0738934 0.110097356 -0.023393061
000010 c8 42 40 3b 0d b5 fc 38 a9 8d 64 3d 6a 1a 62 bc
       0.002933668 0.0001205002 0.05579916 -0.013800243
000020 46 c4 76 3d e1 74 4a 3d 00 33 05 3c 4f 15 4f 3c
       0.060245775 0.04942787 0.008129835 0.012639358
000030 5b ce 7b bb 7b 45 fc 3b 9d fc 54 bd 31 83 11 be
       -0.0038422558 0.0076987124 -0.051998723 -0.14210202
000040 fc ce 14 bd 8a 76 84 3c c9 b0 2f 3c 93 aa f8 3a
       -0.03633021 0.016169805 0.010723301 0.0018971734
000050 4e cf 11 3b 9e 4a 9f 3b 4f a0 9a bb 62 0f d0 bb
       0.0022248807 0.00486119 -0.0047188173 -0.00634949
000060 82 4b df bc fb e8 2c bd cd 3d e1 3c 8d 4e 24 3d
       -0.027257685 -0.042214375 0.02749529 0.040113974
000070 85 b4 d7 3d 79 7d 51 bd 80 e4 c7 bd a0 c9 b2 3b
       0.10532478 -0.05114505 -0.0976038 0.0054561645
000080 2f 0c e5 be 73 e8 ac bc 62 71 aa 3a 23 41 86 3c
       -0.44735858 -0.021106934 0.0013003761 0.016388481
000090 69 2c 88 bd fa 49 2a 3c 38 16 07 3d 8d f7 82 3d
       -0.066490956 0.010393614 0.032980174 0.06394873
0000a0 17 73 81 3b 10 c6 17 be da e3 9c bd 3f 53 88 3d
       0.0039504874 -0.14821649 -0.07660647 0.06656503
0000b0 3a a5 c7 bc 25 27 fd 3c d6 a9 8a 3d e4 92 82 3d
       -0.024370778 0.030902455 0.06770675 0.063756734
0000c0 49 60 38 3d 3c b6 cc bb 7a d9 c2 3c 03 bb 48 bc
       0.0450137 -0.00624731 0.023785342 -0.012251618
0000d0 28 66 c3 bc 61 cc da bc 75 b8 28 bc e8 5b a7 bd
       -0.023852423 -0.026708784 -0.010297884 -0.081718266
0000e0 c1 04 8d bc 15 58 c5 3c 75 a3 4b bd 0e ee 99 3d
       -0.01721418 0.024089852 -0.04971643 0.075161085
0000f0 59 d3 a0 3d d2 3d 96 bd cc a5 bd 3c f8 9b c7 bd
       0.07852811 -0.0733601 0.023150347 -0.097465456
000100 55 a0 82 3d 6d 73 c5 bd fa 62 b1 bd 82 dc 00 3d
       0.06378237 -0.09641156 -0.086614564 0.031460293
000110 90 73 8f bc d3 09 0d bd af 89 2b 3d 79 6d 88 3d
       -0.01751116 -0.034433197 0.041879352 0.06661505
000120 66 95 93 bc f7 37 17 3d 10 c0 a0 3c 4c 68 a6 bd
       -0.018015575 0.036918607 0.019622833 -0.08125362
000130 3f d7 7d 3c cb ba 0f 3c c3 de fb bc c5 7f a6 bd
       0.015493213 0.008772562 -0.03074587 -0.08129839
000140 bf af ee 3d ff 1d ec bd 5d 26 23 3d 0b 6d 4f 3c
       0.11654615 -0.11529159 0.039831508 0.012660275
000150 20 20 02 3d a8 b2 60 3d f2 65 1d bd a6 12 cf 3a
       0.031768918 0.05485788 -0.0384273 0.0015798404
000160 a5 3f 1a 3d 9b 95 e5 bc 67 45 1b 3d 57 09 85 bd
       0.037658352 -0.028025439 0.037907984 -0.06495922
000170 3b 1c 33 3d 0b a9 25 3d da 79 08 3e ae e7 53 3d
       0.043728095 0.040444415 0.13327733 0.05173462
000180 42 2c 9a 3c 31 3d 96 3d b3 e0 f0 3d 71 bb b2 bd
       0.018819932 0.0733589 0.11761608 -0.08727158
000190 36 72 aa bb d3 06 c0 3d 10 57 7d bd b8 13 f4 3b
       -0.0052016033 0.093763016 -0.061850607 0.0074486397
0001a0 9a fa 27 3d ab 18 ca bb 2f c5 9f 3c fb fd e5 3d
       0.041010477 -0.0061674914 0.019503204 0.112300836
0001b0 fa 17 ac 3d d0 59 c3 3b b0 0f 4c bd 11 39 d3 3c
       0.08403011 0.005961634 -0.04981965 0.025784047
0001c0 97 40 c1 3b af e3 21 bd c4 2c 6f bd af 38 3a 3c
       0.0058975923 -0.039523777 -0.0583923 0.0113660535
0001d0 73 08 07 3c 39 41 c9 bc 89 c9 50 bd 9a 5a 41 bd
       0.008241761 -0.024567233 -0.05097345 -0.047205545
0001e0 34 d0 00 bc a5 9c c3 bd a5 c2 3e 3c c7 b9 0b 3c
       -0.0078621395 -0.09551362 0.011643087 0.0085281795
0001f0 37 29 5e 3b 4c 8b bf 3d 46 91 7f bd db 0f 4b bc
       0.0033899078 0.09352741 -0.062394403 -0.012393917
000200 03 2c 12 bd 3a 75 8d 3d d0 20 86 bc b4 37 b6 3d
       -0.035686504 0.06907125 -0.016373068 0.08897343
000210 48 a4 bb bc 53 06 0f 3d 68 14 35 bd d9 8e 2d bd
       -0.022905484 0.03491814 -0.044208914 -0.04237256
000220 56 3d b5 bc d6 8d 19 3c ab cd 1d 3c 05 97 4f bc
       -0.022123974 0.009372195 0.009631555 -0.012670283
000230 fd d5 02 bc 5a 5b 21 3d 13 8d 02 bd cf 11 1c 3b
       -0.007985589 0.03939376 -0.03187282 0.0023814326
000240 e3 f0 2b bd c4 53 d4 bd d6 03 5f bd e7 91 a7 bd
       -0.041977774 -0.103675395 -0.054447018 -0.081821255
000250 99 4a 42 bd 9b 59 c8 bc 5c e3 7b bc 23 43 90 bc
       -0.047434423 -0.02445679 -0.015374031 -0.017610138
000260 0e 39 28 3c 17 17 94 3c be ee 11 bd aa e7 b1 bd
       0.010267509 0.018077416 -0.035628073 -0.086867645
000270 54 96 00 bc d6 79 60 bd dd 2d 58 3d 04 1f 04 3d
       -0.007848341 -0.05480369 0.052778114 0.03225614
000280 56 53 cf 3d c5 09 9c bd d9 38 6d 3d c1 c0 82 bd
       0.10123317 -0.07619051 0.057915542 -0.06384421
000290 5a 6f e2 be 28 31 eb bc 9e d3 96 3d e7 46 5a 3d
       -0.4422558 -0.028709963 0.073645815 0.053290274
0002a0 d8 31 2a 3d ef b3 c1 3d 21 32 a7 bc 3c 15 8e bd
       0.04155144 0.09458148 -0.020409646 -0.06937644
0002b0 f5 35 a9 3c cf 38 2f bc fe 52 e9 bc 9e 8f 8f 3d
       0.020655612 -0.010694697 -0.028481957 0.07009815
0002c0 ef fd eb bc f1 85 ff bc 35 ac 4c 3d d6 3b ce 3c
       -0.028807608 -0.031191798 0.049968917 0.025175016
0002d0 44 db 23 bd 6f 87 00 3c c4 34 d7 bc 9c 96 51 bd
       -0.04000403 0.00784479 -0.026270278 -0.051169023
0002e0 66 28 a1 bb 0a 3e ac bc c4 99 44 3c 09 80 b0 3d
       -0.004918146 -0.021025676 0.011999551 0.08618171
0002f0 f6 85 b2 bb 4b 55 8a bb 36 b2 24 3d 2f 54 7e 3d
       -0.0054480983 -0.0042215935 0.040209018 0.062092002
000300 5e fd 11 bd b5 94 71 bc e7 4d 91 3d 57 7c 2d bb
       -0.03564202 -0.014744927 0.07094937 -0.0026471817
000310 0e 58 40 bd 6b 7a 22 bd 40 39 fb bc 93 5b a5 3d
       -0.046958975 -0.039667528 -0.030666947 0.08074107
000320 d9 e1 76 bd 10 79 d7 bc 89 73 55 bc 38 a0 df 3c
       -0.06027398 -0.026302844 -0.013028034 0.027298078
000330 05 fd f8 3c 0e 6d d3 3b 46 b3 11 3c 2f 76 cc bd
       0.030394087 0.0064522093 0.00889284 -0.09983479
000340 78 09 31 bb e5 da c4 ba 1a 4c 8a bb b4 56 a5 bd
       -0.00270137 -0.0015018849 -0.004220498 -0.08073178
000350 67 58 99 bc cb 65 55 3d 10 71 59 bb cf 91 a1 3c
       -0.018718911 0.05209903 -0.0033178963 0.019722847
000360 df 50 5d 3c 58 3d 65 bc 49 4a df 3b b8 78 15 3d
       0.013508051 -0.013991676 0.0068142754 0.03649208
000370 32 09 a1 3b b6 bf 6d bd 64 1a 70 3b a7 dc c8 3c
       0.0049144262 -0.058044158 0.0036636824 0.024519278
000380 35 b8 c1 3d e6 e5 ca 3d 52 9a 99 bd f1 28 99 3d
       0.09458963 0.09907131 -0.075001374 0.07478512
000390 9a d1 ea 3c fa 25 2c 3d 4c fd fb be f9 ed ce 3c
       0.028664399 0.042028405 -0.49216688 0.025259959
0003a0 d3 80 03 3d 5f ca e0 3c 41 fd a3 bc 59 be db 3c
       0.03210528 0.027440248 -0.020018222 0.026824163
0003b0 8c ee df 3c 36 b5 3e bd ff fa 20 bd b1 0a 22 3e
       0.027335428 -0.046559535 -0.03930187 0.15824391
0003c0 c7 ee 18 bd e9 87 8d bd db 58 11 3d 87 be 20 3d
       -0.03733709 -0.069106884 0.03548513 0.0392442
0003d0 90 5e 51 bd 53 05 f8 ba 12 e7 e1 3d a6 55 19 3c
       -0.051115572 -0.0018922485 0.11030401 0.009358799
0003e0 6f da 87 bc 8c 57 26 bd a1 19 3d 3c a2 55 24 3d
       -0.01658365 -0.040610835 0.011541755 0.04012073
0003f0 6a 7e eb bc ef 5b de 3c 8a f7 99 bd b0 c0 81 bb
       -0.028746802 0.027143447 -0.075179175 -0.0039597377

fc1.bias f4 [128]
000000 1c 42 96 bd 60 8b fd 3d 0b ad 3d bd ba 53 b2 bd
       -0.07336828 0.12380099 -0.046307605 -0.08707376
000010 47 f5 91 bd 41 e1 86 bd c1 20 8c bd e5 69 31 be
       -0.07126861 -0.065859325 -0.06842185 -0.17325552
000020 9c b5 c6 3c 5b 6f 8d 3d 51 29 ed 3d e4 dd e5 bd
       0.02425652 0.06906005 0.11580146 -0.11223963
000030 7d 09 80 3c 20 5b 1f 3e 92 d0 97 bc 24 bf a2 bc
       0.015629524 0.15562105 -0.018532071 -0.019866534
000040 d1 aa 59 bd 98 8d 35 3e d4 05 51 bb 1c 70 35 3e
       -0.05314142 0.17729795 -0.0031894343 0.17718548
000050 33 92 f3 3d f9 6a 04 3e 4b fe d6 bd 15 59 c7 bd
       0.1189312 0.12931432 -0.10497721 -0.09733788
000060 1b e1 6e 3d 56 0d 4d bd 07 e2 cf bd c8 23 2a 3d
       0.058320146 -0.050061546 -0.10150533 0.04153803
000070 bc a5 0e 3e ff 90 fb bd a2 59 56 3e 94 67 8f bd
       0.1393041 -0.12283515 0.2093263 -0.07002178
000080 b7 2e 80 bd 9b c3 8f bd 49 d9 38 3d 89 be d3 3d
       -0.0625891 -0.07019731 0.045129094 0.10339076
000090 2d 4b 08 be 7c c0 cc 3d 77 ba 22 be 05 4e 8d bd
       -0.13309927 0.09997651 -0.15891443 -0.06899647
0000a0 e1 50 38 be 4b 36 88 bc 08 dc 9c bd 59 e8 5f bd
       -0.17999603 -0.016627451 -0.07659155 -0.054664943
0000b0 9b 0f 5f bd c6 e9 e8 bd fe 5b 0a be b4 50 11 3e
       -0.054458242 -0.11372714 -0.13511655 0.14190942
0000c0 b3 37 c5 bb 48 8f ea bd 55 50 bb 3d c0 ef 22 3e
       -0.0060186028 -0.1145311 0.091461815 0.1591177
0000d0 9d 02 42 bd bb 7c 8b 3d 84 b9 b0 bc 0e 02 4c bd
       -0.047365773 0.068109 -0.021572836 -0.049806647
0000e0 16 d5 2a 3d 53 93 11 bd 8b d2 94 bd 7f 11 38 3b
       0.04170712 -0.03554089 -0.072667204 0.00280866
0000f0 b0 9b 34 be 10 01 28 be 95 09 2a be 52 f4 5f 3d
       -0.17637515 -0.16406655 -0.16605218 0.05467636
000100 44 23 19 3c 72 98 e0 bd 35 28 5c bd 79 08 11 be
       0.009346787 -0.10966577 -0.053749282 -0.14163388
000110 8f 45 90 bd 56 d8 69 3d 3d 90 89 3d 4b cd ef bc
       -0.07044517 0.05709108 0.067169644 -0.029272696
000120 c0 3e 78 3d 87 fe fa 3d 60 9d e5 3d 59 c1 28 3d
       0.060606718 0.122555785 0.112116575 0.041200016
000130 75 0e 3c 3c c0 fd cc bc b9 a9 cd 3d 25 6e 3f be
       0.011478056 -0.025023341 0.10042138 -0.1869436
000140 c1 fc fb 3d 78 e1 60 bd ac 0f 3b bd 9a 29 94 3c
       0.12304068 -0.054902524 -0.045669243 0.018086243
000150 fe ba 72 3d b2 3d c1 3d 08 9e 26 be f2 28 35 3e
       0.05926036 0.094355956 -0.16271222 0.176914
000160 76 00 61 bd 52 f5 26 3e 21 8a 6a be da 94 ff 3d
       -0.05493208 0.1630452 -0.22904254 0.12479563
000170 98 c3 30 be 46 05 be bc 59 3b 03 3e c2 4c aa bd
       -0.17262113 -0.023195874 0.12815608 -0.08315422
000180 de 2d 92 3d 54 bc 1c 3e 16 c7 65 be 75 4b a1 3d
       0.07137655 0.15306216 -0.22439227 0.078757204
000190 33 bd 43 bd 6b 93 76 3e 74 78 31 3d c3 91 11 3e
       -0.047787856 0.24079673 0.043327764 0.1421576
0001a0 67 b9 27 be 32 f2 00 3e dd 5d 55 3d 07 61 e5 3c
       -0.16379319 0.1259239 0.052091468 0.028000368
0001b0 8b 6a 6b 3d 59 02 e1 3c c4 07 a2 bd 2b 64 dc bd
       0.057474654 0.02746694 -0.079116374 -0.10761293
0001c0 e3 37 1e 3e f6 96 3f be b5 b1 21 be fa cd 4b be
       0.15451007 -0.18709931 -0.15790446 -0.19902793
0001d0 e3 40 a1 3c 48 de 1a bd 10 62 94 bd f5 e9 16 3e
       0.01968426 -0.03780964 -0.072452664 0.14737685
0001e0 96 59 0b be 15 26 78 3d 73 d5 b5 bd e5 61 0f be
       -0.13608393 0.060583193 -0.08878603 -0.14002188
0001f0 50 1a 4a be 59 76 12 be a2 13 13 3e ea 07 79 bd
       -0.197366 -0.14302959 0.14362958 -0.060798563

fc2.weight f4 [256, 132]
000000 ae c6 9f bd df 09 e5 bd 97 cf aa bd 2b 75 d2 bd
       -0.07801567 -0.111835234 -0.08340376 -0.10276254
000010 2c 58 20 bd 0a 54 41 bc 55 36 02 3d 91 d5 a1 ba
       -0.039146587 -0.011799822 0.031790096 -0.0012346973
000020 f8 7b ab bc 5b 02 d1 3c ae b3 f6 bb 68 dd 95 bd
       -0.020933136 0.025513818 -0.0075287437 -0.073176205
000030 f4 7c 7e bd 2c c1 f1 bc 5d 27 0c bd ae 31 06 3c
       -0.062130883 -0.029511057 -0.034217227 0.0081905555
000040 34 c6 a2 bd d6 ea 9e bc 00 19 30 bc d7 65 62 bd
       -0.079479605 -0.019399088 -0.010748148 -0.055272903
000050 65 a0 36 bd b0 00 52 3d 1c 18 ec 3d 02 6e 9b 3d
       -0.044586558 0.051270187 0.11528036 0.07589342
000060 cb 3b ac bd 2e 78 ac bd a1 97 47 bc 00 a0 8e bc
       -0.08409842 -0.0842136 -0.012182147 -0.017410278
000070 23 a8 93 3d e1 ba ac 3b e8 b1 dc bb b1 4b 71 bc
       0.07209804 0.005271301 -0.0067350753 -0.014727519
000080 67 02 02 be 5c 3d 2b 3c ad e9 b6 bb c4 32 1e 3b
       -0.12696229 0.010451641 -0.0055820555 0.0024139145
000090 34 f8 c9 bc 0b cc 74 3c 68 1e 7b bd 53 ca 08 3c
       -0.024654485 0.014941226 -0.061308295 0.008349019
0000a0 19 e5 19 be ee da 58 3d 81 fa ec bd f0 2c 01 bc
       -0.150288 0.052943163 -0.11571217 -0.007884249
0000b0 3a 24 a3 3c 2d a0 cb bb ff 9a c2 3c 53 96 c8 3c
       0.019914735 -0.006214163 0.023755549 0.024485743
0000c0 b0 87 8b bc 9f b7 ea 3b a6 73 99 bd cb ed 3f 3d
       -0.017032474 0.0071630026 -0.07492761 0.046857636
0000d0 9b cc d1 bd 29 f5 81 bd 21 0c 9c bc c6 80 a1 3b
       -0.102441035 -0.06345589 -0.019048752 0.004928681
0000e0 9c 9b 2e 3d 73 87 76 3d 60 a5 8c bb 87 8c 78 bd
       0.04262887 0.06018777 -0.004292175 -0.060680892
0000f0 6d 99 00 be 17 d6 4e bd 0f 67 34 3d 51 bd c4 bd
       -0.12558527 -0.05049714 0.044043597 -0.09606422
000100 4e f2 b4 3b ee 0a bc 3c ff e5 e3 bd 82 d7 aa bc
       0.005522049 0.02295443 -0.11127853 -0.020854715
000110 26 5f 18 bd 34 11 65 bd 9a a4 0a bd c6 fc a4 bd
       -0.037200116 -0.05592461 -0.033848383 -0.08056025
000120 0c 34 38 bd 44 7d d7 3c 74 60 cc bd 48 64 9b bd
       -0.04497151 0.026304848 -0.099793345 -0.075874865
000130 24 6f b1 3c 73 f7 08 3d bc db b2 bc 5b 84 5b bd
       0.021659441 0.03343911 -0.021833293 -0.05359302
000140 f4 e2 e7 bc 7a 85 18 3c d3 01 92 3c 07 07 82 bc
       -0.028306462 0.009309167 0.017823135 -0.015872492
000150 ae fd 8d 3c 7f b4 50 3d a5 6f 3d bd a5 fb e7 3d
       0.017332878 0.050953384 -0.04624905 0.11327294
000160 05 fc 86 bd 18 ea b2 3c 90 c2 21 3d e0 e3 08 bd
       -0.06591038 0.02184014 0.03949219 -0.033420444
000170 91 65 08 bd 01 78 e8 bd de c8 b0 3b f1 53 7f 3c
       -0.033299986 -0.11351014 0.005395039 0.015583978
000180 f4 63 31 3d ad 5a 7e bd 0b 39 4b 3d 2c 6d 92 3d
       0.043308213 -0.062098194 0.049614947 0.07149729
000190 fe 25 d1 bc 02 01 84 3d 9e c9 d4 3b 0c 44 bf bd
       -0.025530811 0.06445505 0.006493761 -0.09339151
0001a0 2f 2f 8f bc b5 8d 16 bc 76 d9 9c 3d 32 55 0c 3d
       -0.017478554 -0.009189059 0.07658665 0.034260936
0001b0 7c 8f 69 3c e8 1e 26 3d d0 08 9e 3d d9 98 1f bc
       0.014255401 0.04055682 0.077165246 -0.009741032
0001c0 2b 2a 2f bd 56 78 8a 3d 67 30 b7 3c fc ab 99 3c
       -0.042764824 0.067612335 0.022361947 0.018758766
0001d0 63 d8 30 3b 2f fd 8c bd ac 44 96 3d 63 6e 0f 3d
       0.0026984445 -0.068842284 0.07337317 0.035017382
0001e0 7e 2b 20 bc a3 13 e2 bd b7 fd b0 bd 32 f2 f8 bd
       -0.009775994 -0.11038902 -0.08642142 -0.1215557
0001f0 9b bb 55 3d fe 48 89 bd 95 42 24 bd 66 7c 8d bd
       0.052180868 -0.06703375 -0.04010256 -0.06908493
000200 f2 03 c4 bc 4b 1a 42 3c 71 8b 0f 3e 7f 6d a6 bc
       -0.023927663 0.011847089 0.14018036 -0.020315884
000210 2d b3 ad bc 66 d6 2e bd fe 15 f6 bb e3 ff 32 3c
       -0.021203602 -0.042684935 -0.007509946 0.010925266
000220 e2 39 13 3d 20 c9 50 3b d8 5a 7a bd 67 24 b5 3b
       0.035943873 0.003185816 -0.06112179 0.005528021
000230 aa 1e 2e 3d 5d 31 b7 bc f3 6f 9f 3c 2d 92 0c bd
       0.042509712 -0.022362405 0.019462561 -0.03431909
000240 07 ca c4 bc 79 4c 1f 3b 7e f8 1c be e4 cd 83 3d
       -0.024022115 0.0024307056 -0.15329167 0.06435755
000250 65 f3 21 bd 03 3c 6a bc 0c 26 f6 bc dc 39 44 3d
       -0.03953876 -0.0142965345 -0.030047439 0.04790674
000260 4c 9f ee 3c 48 7e 84 3d 64 af 2e 3d 5d 2a 0b 3d
       0.029128693 0.06469399 0.042647734 0.033975948
000270 69 dc 8c bc ef e2 da bd 9f 61 1b 3d 43 ad 00 3d
       -0.017194944 -0.106878154 0.037934896 0.031415235
000280 af 30 29 3d 37 3f a4 bd 9a b2 41 3d a4 16 f6 bc
       0.041306194 -0.0801987 0.04728947 -0.030040093
000290 32 9c 2b be 20 90 23 bd cb 26 cd bd 05 98 7e 3d
       -0.16758803 -0.03993237 -0.10017165 0.062156696
0002a0 fa bd 59 3d 13 6b 1a bd c4 c9 1d bb a6 55 31 bb
       0.05315969 -0.03769977 -0.002407656 -0.0027059107
0002b0 43 66 08 bd b5 ea 44 bd 14 29 c5 bd 4f af 26 bc
       -0.03330065 -0.048075397 -0.09626976 -0.010173633
0002c0 35 1d df bd 81 b7 b6 bd e3 0d 20 bd 68 21 06 3a
       -0.10894243 -0.08921719 -0.039075743 0.0005116672
0002d0 6a da cb 3d bf af d6 3c c2 95 93 bd 27 fa 5f bc
       0.099537686 0.02620685 -0.072062984 -0.013670481
0002e0 72 87 c6 3c 73 f9 c2 3c f5 ec e6 3c 96 71 83 3d
       0.024234507 0.023800587 0.028189162 0.06418149
0002f0 9a 98 7d bc e2 c9 a2 3d 11 1e 06 be dd a7 76 bd
       -0.015478278 0.07948662 -0.13097407 -0.06021868
000300 26 cd b6 bd a9 1c f3 3c fd 39 5e bd 98 d1 94 bb
       -0.08925848 0.029676752 -0.05425452 -0.004541587
000310 c9 49 f6 bd 08 ae dd 3d be 6e 6b 3d c2 5f 0b bd
       -0.12025792 0.108242095 0.05747866 -0.03402687
000320 9b 0c 6e 3d 47 6c 86 bd 29 4c a0 3c 83 65 34 3d
       0.05811749 -0.06563621 0.019567566 0.04404212
000330 e5 12 c3 3b 78 02 9f bd 3f a7 38 bd 3a 65 bf 39
       0.00595318 -0.07764143 -0.045081373 0.0003650578
000340 23 db 1e 3d 47 1c 30 bc 1c c2 bd bc 4f a5 69 3d
       0.038783204 -0.010748929 -0.023163848 0.057042416
000350 11 da 65 bd 64 1b 0b be 2c e8 85 bd 0d ba 20 3d
       -0.056116167 -0.13584667 -0.06538424 0.03923993
000360 ba 0e 91 bd 7e a6 bf bb 2e 90 8e bd 16 7f 7f bd
       -0.07082887 -0.005848705 -0.06961094 -0.062377058
000370 5e 50 bf bc 65 ba 68 3d 0c fa 01 bb 18 55 2a 3d
       -0.023353752 0.056818385 -0.0019832877 0.041585058
000380 59 ea af bc 5c 0a d9 3c 6b e2 63 3b 33 8e 1b bd
       -0.02147405 0.026494198 0.0034772407 -0.03797741
000390 60 ad ca 3c 99 57 a7 bd c4 8e 53 bd be 1b 64 bd
       0.024740875 -0.08171005 -0.051649824 -0.05569052
0003a0 8c a7 87 bc 5e f3 a2 3b 42 47 4b 3d b0 52 c1 bd
       -0.016559385 0.0049728593 0.049628504 -0.094395995
0003b0 cb ba 37 3d d9 b9 c2 bd 7f 89 cf bd 24 2d 10 bb
       0.044855874 -0.09508104 -0.10133647 -0.0021999562
0003c0 c5 6c 50 3d 8e 89 43 bd c4 a1 38 3d 51 c1 89 bd
       0.05088498 -0.047738604 0.045076147 -0.06726325
0003d0 57 67 f8 bc 24 26 da 3c 63 f2 eb 3b d6 0b 57 3d
       -0.030322714 0.026629515 0.0072005256 0.052501522
0003e0 fc 27 6e bc 62 80 94 bc fd 5f 21 bd 78 05 38 bd
       -0.0145359 -0.018127624 -0.039398182 -0.04492709
0003f0 68 97 6b bd f4 2a 03 bd 7e a5 3f bd a3 b0 38 bd
       -0.05751744 -0.032023385 -0.046788685 -0.04509033

fc2.bias f4 [256]
000000 b0 a3 27 bd 85 b9 96 3d 6b f6 a4 3d f3 44 be bd
       -0.04092759 0.07359604 0.08054813 -0.09290495
000010 92 0c 90 3d 61 d3 ba bd d3 cd 90 bc 92 a0 e8 bc
       0.070336476 -0.091223486 -0.01767627 -0.028396878
000020 13 09 8e bd 99 b9 12 3d b6 c8 2b bc 2e 35 d0 bd
       -0.069353245 0.03582153 -0.010484865 -0.10166393
000030 f8 3b 9d bd f4 dd f1 ba 81 a3 d7 bc c4 51 e0 3c
       -0.07677454 -0.0018452988 -0.026323082 0.027382739
000040 7e 54 b1 3d 2c 07 6e 3d 4f d6 8e 3d 88 2f d9 3d
       0.08658694 0.05811231 0.0697447 0.10604769
000050 13 7b 88 3d 33 c9 fb bd 2c 9a 80 bd 43 38 39 bd
       0.066640995 -0.12294235 -0.06279406 -0.04521967
000060 34 8d ab 3d 6c 18 db 3d a9 48 8f 3c 1c fa d1 3c
       0.08376542 0.106980175 0.017490702 0.025631957
000070 49 c7 ee 3d 96 35 6e 3d 81 d4 0b 39 cd ef db 3d
       0.116591044 0.058156572 0.00013335237 0.10739098
000080 f2 33 0a 3d 37 68 36 bd b9 e0 31 3e 38 26 c6 3d
       0.033740945 -0.04453298 0.17370881 0.096752584
000090 7d 17 95 3d 15 94 5e 3d a4 9b ab bc b7 4e 37 3d
       0.07279871 0.05434044 -0.020948239 0.044752803
0000a0 1f 52 fc 3c 84 05 3f 3d 55 ba c0 bd 5b 24 68 3c
       0.030800877 0.04663612 -0.0941054 0.014168824
0000b0 7c f4 05 3e 7d 4a 85 3d 7f b6 3d 3d 11 30 ec 3c
       0.13081545 0.06508348 0.04631662 0.028831514
0000c0 f8 57 9f bd d9 d1 a5 bd 2e 71 5f bc a1 1e e5 bc
       -0.077804506 -0.08096666 -0.013637824 -0.027968707
0000d0 6c ae 38 3d 37 52 8b 3b 1b e5 37 bd c9 6d aa bd
       0.045088217 0.004251744 -0.044896226 -0.08321721
0000e0 e3 1e 96 bd ac e6 38 3c c1 87 5c bd d0 ab 15 bb
       -0.0733011 0.011285465 -0.053840403 -0.0022838004
0000f0 21 ef 24 3d 79 53 d0 3c 2f 24 c6 bc 40 5e b3 3c
       0.040267114 0.025430428 -0.024187176 0.021895528
000100 f3 5f 18 3c 4b 28 7e bd 36 23 f4 3d 95 5b 91 bd
       0.00930022 -0.062050145 0.119207785 -0.07097546
000110 e6 ef 92 bd ab df 93 bd 03 2c c2 3d 76 90 37 bd
       -0.07174663 -0.07220396 0.09481051 -0.044815503
000120 7e e0 d1 bd 24 0b 34 bc 92 ff 80 3d 51 12 2d 3d
       -0.102478966 -0.010988984 0.06298746 0.042253796
000130 dc 12 49 3d d0 ba f7 bd 96 c9 cf 3d 64 b9 b0 3c
       0.04909025 -0.120961785 0.10145871 0.021572776
000140 4e a7 d5 bc 2a 58 ec 3d 09 38 7a bd d3 4c b6 bd
       -0.026080754 0.115402535 -0.061088596 -0.08901372
000150 d4 02 d1 3c e9 7b 8e 3c 95 76 85 bd ac 4e 74 bd
       0.025514044 0.01739307 -0.06516758 -0.05964534
000160 f6 67 ab bd 7a 34 8f 3d e7 e1 b8 3d 3c 41 97 bb
       -0.08369438 0.06992431 0.090274625 -0.004615931
000170 95 91 92 bd 91 37 1c bd d8 1f 9f bd 0f 59 69 3c
       -0.07156674 -0.03813893 -0.077697456 0.014242425
000180 96 d1 9d bc 78 69 d7 3d 39 e5 69 3d 24 21 b3 3c
       -0.019264977 0.105181634 0.05710337 0.021866389
000190 3a 35 14 3c 39 c9 e9 3d db c5 48 3c 1a 34 d1 bd
       0.009045893 0.11415333 0.012254204 -0.10215016
0001a0 e5 54 fc 3d b1 0d b0 bc 38 ca af 3c 73 86 f9 3d
       0.1232088 -0.021490904 0.02145873 0.12183847
0001b0 cd 7a 19 3e e0 2b 9d bc ec 66 a9 3c 06 ae eb bc
       0.14988251 -0.01918596 0.02067896 -0.028769504
0001c0 a4 51 1f bd 75 51 30 bc 35 5e 09 3d 32 eb 62 bd
       -0.038896218 -0.010761608 0.03353711 -0.05540008
0001d0 ea b1 b3 bd 44 9f 1e 3d e4 22 40 3d 7e 50 73 bc
       -0.08774169 0.038726106 0.046908274 -0.014850734
0001e0 20 6f a0 3d 92 f0 39 3d 57 2d 23 bd 65 e1 a9 bc
       0.078336954 0.04539544 -0.03983816 -0.02073736
0001f0 e2 46 2b 3d 82 63 14 bd 34 0a d1 bb dc 6e af bd
       0.041815646 -0.03622771 -0.00637939 -0.085660666
000200 e0 a6 a2 3d 99 75 a5 bd 75 82 ca bd 36 1d 1a bb
       0.07941985 -0.080790706 -0.09888164 -0.0023515946
000210 89 c3 93 bc e6 63 79 bb 4f 51 d4 3d 94 81 d4 bc
       -0.018037574 -0.003805393 0.10367071 -0.025940694
000220 43 36 f5 bd d6 62 5c 3a a7 df 29 bd 9c f9 df bd
       -0.1197324 0.00084070617 -0.041473057 -0.10936281
000230 8c 32 c9 bd b2 21 13 3e c9 20 01 3e 07 17 51 bd
       -0.09824094 0.14368322 0.12610163 -0.05104735
000240 d3 ac 83 3d f5 bc 09 bc d2 eb 8d bd 29 83 b1 3d
       0.06429448 -0.008406867 -0.06929745 0.08667595
000250 62 7c 2d 3d 0b bd e4 bc de 0e 4f 3d b3 6e 83 3c
       0.04235495 -0.027922174 0.050551288 0.016043996
000260 81 79 80 3c 40 2d e7 bd cd f7 80 3d b6 59 ca bd
       0.015682938 -0.11287928 0.06297264 -0.09880392
000270 72 b1 9f 3d f4 6f 73 3d d3 27 32 3b a5 59 25 3d
       0.07797517 0.05943294 0.0027184382 0.040368695
000280 ad 42 01 bd 93 5c a2 bd 2f 82 29 3c bb 78 a4 3c
       -0.031557728 -0.079278134 0.01034598 0.0200771
000290 0b 3b 85 ba 86 4b b0 3d 35 02 85 bd a9 20 b1 3c
       -0.0010164691 0.08608155 -0.064945616 0.021622019
0002a0 2e ce 06 3d 10 9a 0b bd 1f c1 5a 3d 8c 51 67 bd
       0.032911472 -0.034082472 0.05340683 -0.056474254
0002b0 0f e7 8e 3c 71 28 54 3d de 81 4d 3d 69 c4 f2 bc
       0.017444162 0.05179638 0.05017268 -0.029634671
0002c0 a8 f0 22 3e bf 5f 6a 3d 61 5c 18 3c 97 d4 fe 3d
       0.15912116 0.057220217 0.009299369 0.12442892
0002d0 7d 6c ef 3d 57 98 95 3d 23 f3 6f 3d cd e0 9d 3d
       0.11690614 0.07304447 0.058581483 0.07708893
0002e0 55 ea 4f 3c bd ef a2 ba 5e 9c 91 bc 1f 04 6d 3d
       0.012690146 -0.0012431067 -0.017774757 0.05786526
0002f0 42 86 69 bd 53 7b d6 3d 9a 67 0e 3c 7b b5 13 3d
       -0.057012804 0.10472741 0.008691693 0.036061745
000300 ab 8a 6c 3d 48 3b 15 3d 16 4c b1 bd af 97 75 bd
       0.05774943 0.036433488 -0.0865709 -0.05995911
000310 97 a9 c6 bd 5d 8a 5f 3c 71 ef 71 bd f3 64 55 bd
       -0.097003154 0.013643828 -0.05906624 -0.052098226
000320 62 9f dd 3c 07 f3 fd 3c 49 97 ea bc 00 6b 89 bd
       0.027053539 0.030999674 -0.028636592 -0.06709862
000330 88 56 61 3d eb 18 2b bd c8 03 72 3c 7c 47 98 bd
       0.055014163 -0.04177181 0.014771409 -0.074355096
000340 4b a7 db 3d bc 97 5f bd f7 64 53 3d bb da 16 3e
       0.10725268 -0.054588065 0.05160996 0.14731877
000350 a1 f3 ac 3c 0e 11 26 3c 9a 93 77 3b 66 e4 9d 3c
       0.021112265 0.010135902 0.0037777186 0.019273948
000360 29 fe d0 3d 01 8c f7 3d 83 fa 45 bd 33 2e da bd
       0.10204727 0.120872505 -0.04833461 -0.10653343
000370 c2 be 03 3e 6b a6 ca 3d 63 5b c8 bd a3 39 9a bd
       0.12865737 0.09895023 -0.09783056 -0.075305246
000380 67 71 20 3e 31 48 35 3c 6a ee 85 3c cf 2f 1d bc
       0.1566826 0.011064575 0.016349036 -0.009593918
000390 07 fb b6 3d df 6c 1f 3d 9e 8a 4e 3d 4f 1a 92 3d
       0.089345984 0.038922187 0.050425164 0.07133924
0003a0 c4 0d 36 bd 1d e6 49 3d f8 82 0b bd ac 6e ce 3d
       -0.04444672 0.04929172 -0.03406045 0.10079703
0003b0 71 81 9e 3d de a2 cc bd 52 26 ac bd fa ed 1f 3d
       0.07739533 -0.09992002 -0.084057465 0.03904531
0003c0 f1 35 12 3e c7 de 94 bd cc 89 cc 3c 3f 23 2b bd
       0.1427839 -0.07269054 0.02496805 -0.04178166
0003d0 d4 d1 f9 bc 59 98 51 bc 9f b4 fe 3d 85 a0 da bc
       -0.030495562 -0.01279267 0.124367945 -0.02668787
0003e0 b9 ea d3 bd 9d e4 aa bd b1 79 a7 bd 95 95 79 bd
       -0.10347504 -0.08344386 -0.08177508 -0.06093367
0003f0 8e b5 dc 3d af 04 91 bd e5 5c 0a bd f8 bb c6 3d
       0.10776816 -0.070809714 -0.033779997 0.09703821

fc3.weight f4 [1, 256]
000000 92 8d 92 3d 3c 32 64 3d 5b fb 1f 3d c6 11 54 bd
       0.07155909 0.05571197 0.03905807 -0.051774763
000010 aa 2e 3f 3d a9 bc 34 bd 42 4a 83 bd b4 20 2f bd
       0.04667536 -0.044125233 -0.06410648 -0.042755798
000020 84 7b d5 bc 6c ee 80 bd 00 cb 5b bd 79 2a f0 bd
       -0.026059873 -0.06295475 -0.053660393 -0.11726851
000030 1c a0 33 bd ee 26 88 bd 36 b4 0c 3d d5 f6 0a 3d
       -0.043853864 -0.0664805 0.03435155 0.033926804
000040 f3 42 cc 3c 26 9b e5 3d 0e 1f a4 3d d2 e7 b4 3d
       0.024934268 0.11211233 0.08013736 0.08833279
000050 4e cb 42 3d ba 2e 01 be 8b 81 8e 3d 98 93 6a 3d
       0.047557168 -0.12615481 0.06958302 0.057269663
000060 a4 49 65 3d a5 a1 93 3d 0d c3 b9 3c a8 b0 b2 3d
       0.055978432 0.072085656 0.022676015 0.08725101
000070 0c ef 00 3d 25 49 c4 3d fd bb 9d bd b7 4f 5c 3d
       0.031477973 0.09584264 -0.077018715 0.05378696
000080 9a 0d fb bd d3 e6 6f 3d e5 53 1d 3d 33 1a 3d 3d
       -0.12258454 0.05856974 0.038410086 0.046167564
000090 fe 66 34 3d 9c 6c 17 3d b5 1a 27 3d db dc 18 3d
       0.044043534 0.036968812 0.040796954 0.03732
0000a0 79 7b da bc a6 5b cf bd 03 5f 96 bd 50 f4 7a bd
       -0.026670204 -0.101249024 -0.07342341 -0.06126815
0000b0 5f fd 66 3d be 36 1a 3e d3 98 7f 3d 0f eb a9 3d
       0.056393977 0.15059945 0.062401604 0.08296787
0000c0 1a 0e b0 bd 3c 01 f4 bd 17 5b 58 3d 95 23 63 3d
       -0.0859644 -0.11914298 0.052821245 0.055453856
0000d0 b3 fe 9d 3c d3 ba a7 3d 95 3b 93 3d 26 0a c1 3d
       0.01928649 0.08189931 0.07189099 0.09425764
0000e0 ca 83 2a bd 8a 94 67 3d ac c5 c3 bd bf 4f 2f bd
       -0.04162959 0.056538142 -0.09559187 -0.04280066
0000f0 26 81 c2 3d 37 6e ca 3c 07 8a 81 bd a0 2f ab bd
       0.09497289 0.024710758 -0.06325155 -0.08358693
000100 6a 49 a3 3d 3d e4 b9 3d e0 e2 f4 3c a3 d2 93 bd
       0.07972987 0.09076736 0.029893339 -0.0721791
000110 55 7a 9c bd 8f 7b fd bd e2 02 33 3d 67 33 12 bd
       -0.076405205 -0.123770826 0.04370392 -0.035693552
000120 dc b9 06 3e 30 85 be 3d dd b6 68 3d 63 84 17 3d
       0.13156837 0.09302747 0.056815017 0.03699149
000130 38 65 20 3d d8 f1 81 bd e0 0d 8c 3d cd 9f 2e 3d
       0.03915903 -0.06344956 0.06838584 0.042632867
000140 07 00 a4 bd 00 ab 82 3d 0f 5c c5 bd 87 19 ed bc
       -0.08007818 0.06380272 -0.096366994 -0.028942836
000150 d1 e8 ba 3d 70 62 d5 3c 4b 3f f1 3d 36 6f b6 bd
       0.091264375 0.026047915 0.1177965 -0.089079306
000160 3d 80 0d be 4c 96 13 3d 76 69 64 3d cc ae a6 bd
       -0.1381845 0.036032006 0.055764638 -0.081388086
000170 ba 5d 87 bd f9 60 3f bd e5 68 d3 bd 87 8d 36 3d
       -0.06609674 -0.04672334 -0.103227414 0.044568565
000180 04 59 45 3d f3 cb 0b 3e 2e fc bc bd da bd 14 3d
       0.048180595 0.13652019 -0.09227787 0.03631387
000190 a9 64 56 bd ef 07 15 3d 55 f2 9c 3d c7 83 35 bd
       -0.05234209 0.03638452 0.07663409 -0.044315126
0001a0 34 ae fb 3c 67 69 f5 bd 80 22 aa bd 16 da 02 3d
       0.030722715 -0.119829945 -0.083073616 0.031946264
0001b0 2c 9e 7e 3d a3 71 c6 bd 95 d5 43 bd 38 a5 83 3d
       0.062162563 -0.09689643 -0.04781111 0.06427997
0001c0 c3 42 27 bd 4c da 78 3c ed 6a 58 3d 0a cb 1a bd
       -0.040835153 0.015188765 0.052836347 -0.03779129
0001d0 74 b0 a4 bd 2b 1e ab bd 03 c5 2e 3d 5a 21 03 3d
       -0.08041468 -0.083553635 0.042668354 0.03201423
0001e0 f7 8f eb 3d 05 3f 8a 3d 6a 62 8d bd f0 04 68 3c
       0.115020685 0.06750301 -0.069035366 0.014161333
0001f0 bc 10 ac 3d 5d 05 c8 bd 8c 69 a3 bd 00 4c 63 bd
       0.08401629 -0.09766648 -0.07979116 -0.0554924
000200 6b f1 80 bd 1a ab 1c bd 86 fd b5 bd 52 9c 80 3d
       -0.06296047 -0.038249113 -0.088862464 0.06279816
000210 0c f1 8c bd ab 53 69 3d ab 42 9f 3d df 4d ac 3d
       -0.068819135 0.056964558 0.07776388 0.0841329
000220 9b dc 3f bd b2 67 98 bd 2f b9 8f 3d 20 4d b7 bd
       -0.046841245 -0.07441653 0.07017743 -0.08950257
000230 61 34 96 bd 6b 84 3b 3d 6a 3e 08 3d b5 ba 8c bd
       -0.07334209 0.04578058 0.033262648 -0.06871549
000240 a5 45 7a 3d 0d 47 18 3d 4a be 5f 3d f4 4c ac 3d
       0.061101574 0.037177134 0.054624833 0.08413115
000250 64 26 d3 3d ee 4d 24 3b 78 15 97 bd 8e b4 46 bd
       0.10310057 0.0025070864 -0.07377142 -0.048512034
000260 3a c5 02 3e 52 79 70 bd 0b 45 b3 bd 2f c1 9d bd
       0.12770548 -0.05870945 -0.08753403 -0.077028625
000270 30 da e3 3d 9a 3a d1 3d b7 62 63 3d ba 15 b4 3c
       0.111256 0.102162555 0.055514064 0.021983016
000280 56 ee 3d bd 4d 85 3f bd 6e a5 e1 bc c3 aa dc 3c
       -0.046369873 -0.046757985 -0.027544703 0.026936894
000290 5d f3 6c bd ca f3 e1 3d e0 d4 4e bd ae e5 4a 3d
       -0.057849277 0.11032827 -0.050495982 0.049535446
0002a0 e1 f7 56 3d b5 61 da 3d 4c 5a 5c bd 02 87 1d bd
       0.05248249 0.106631674 -0.05379705 -0.03845883
0002b0 84 aa 1a be 30 74 9f 3d 40 30 cf bd e9 48 b8 bd
       -0.15104109 0.07785833 -0.10116625 -0.089982815
0002c0 3c e3 58 3d 16 2f 13 3d bd 68 d9 3c bb ab 14 3d
       0.052951083 0.035933577 0.0265392 0.036296587
0002d0 5b 9f 65 3d d1 c9 f9 3d 5e 12 39 3d f4 56 d7 3d
       0.056060176 0.121966965 0.045183532 0.10514632
0002e0 a8 03 50 3d b2 3b 11 be 3e eb 0c 3d 55 4b 0a 3d
       0.050784737 -0.14182928 0.034404032 0.03376325
0002f0 1e 2f e5 bd b2 1c 4b 3d 00 a6 4e bd 75 1a fc 3c
       -0.111906275 0.049587913 -0.05045128 0.030774334
000300 29 93 68 3d f4 31 1c bd a7 f8 3a bd 11 29 3b bd
       0.056780968 -0.038133577 -0.04564729 -0.04569346
000310 75 df e8 bd 86 39 4a bd e3 8b 93 3d d1 04 5b 3d
       -0.11370746 -0.049371265 0.07204416 0.05347139
000320 c0 81 c8 3d 3b f0 df 3c ba 7d ca 3d 66 d0 04 be
       0.09790373 0.02733623 0.09887262 -0.12970123
000330 e5 4d cd bd 95 69 81 3d 6e e1 71 3d 3a 86 4e bd
       -0.10024623 0.06318966 0.059052877 -0.050420977
000340 45 90 20 3d 9a ea 7a bd d0 ef fc bd 90 e8 70 3d
       0.039200086 -0.06125889 -0.12350428 0.05881554
000350 1b 62 98 3d 17 45 77 3d 4b 6d 04 be 0b 02 a9 bd
       0.07440587 0.060368624 -0.12932317 -0.08252343
000360 e3 4b 49 3d 08 a4 cf 3d 17 a1 d0 3d 53 c2 92 bd
       0.049144637 0.10138708 0.101869754 -0.07165971
000370 77 42 0d 3d 18 21 1c 3d c6 6a 19 bd 4d 9b 8a bd
       0.034487214 0.0381175 -0.037455343 -0.067679025
000380 9f a0 4e 3d 7e b5 d1 3c 93 1d 6c 3d 10 f8 04 be
       0.05044615 0.025599238 0.05764539 -0.12985253
000390 22 97 a3 3d 1d f3 81 bd 05 bb 72 3d 80 ea 96 3d
       0.07987811 -0.06345198 0.059260387 0.07368946
0003a0 58 2e e3 bd ac 09 58 3d 8f b7 bc bd 50 18 b0 3d
       -0.11092824 0.0527436 -0.092146985 0.08598387
0003b0 3b c8 f3 3c 85 e3 c9 bd ca 81 0f bd 35 e2 90 bd
       0.029758563 -0.09857849 -0.035035886 -0.070743956
0003c0 30 aa 0d 3d 45 8f 03 be af 84 fe bc 41 91 b8 bd
       0.03458613 -0.12847622 -0.031069128 -0.0901208
0003d0 f5 34 21 bd 8a d2 99 bd 7a f9 21 3d a8 7a 02 be
       -0.039357144 -0.0751086 0.03954456 -0.12742102
0003e0 79 0d 4a bd 35 8b 52 bd 26 24 b1 bd 9b 1d 75 3d
       -0.049329255 -0.05140229 -0.08649473 0.059842687
0003f0 d8 2e 2b 3d ec 0c d6 3d 8e fb b1 3d ce db 87 3d
       0.04179272 0.104516834 0.086905584 0.06633721
