ma-checkpoint_actor.pth (torch_old, 154604 bytes, 6 tensors)

fc1.weight f4 [128, 33]
00000000: 939b f03e 5c88 d4be f994 0ebd 7b48 783b
00000010: a5ca 7dbd e1d6 f2bc 45c0 b73d 1de9 49bd
00000020: cbe1 0b3f 92a7 50be f05b f83d 2faf 65bd
00000030: 15c4 1c3e 2b7a 60bd 4a7a 0c3f 0c69 633e
00000040: c969 1ebd b274 07be 8a7e 31bd e4c4 2e3d
00000050: 9119 933c 3839 a23d b987 473e 56b9 f23c
00000060: 2bd4 113e 588d 273e d385 ecbe faf7 013d
00000070: fdde c7be 3414 9a3c 2bc4 35be ff56 913d
00000080: 61e8 06c0 b208 833f 84bf 2d3f f8b7 63bf
00000090: e84a 923e 832e c13d 6aad 46bd a82e f1be
000000a0: 6db7 813e 1d8d d83e 4766 1d3e 8082 083d
000000b0: e978 093e 9854 8ebe 7d9b 45bf 16bd 2cbf
000000c0: f1e1 b83d aa00 a1bc d87c dd3d 06dc aabe
000000d0: f652 85bd 15d6 e2bd 9125 f1bd cf47 833e
000000e0: 2f84 99be 70f0 37be 6d10 113e ba41 263d
000000f0: 531f 0d3f ac55 d03e 9d4b aa3d 90ed eabe
00000100: b8a4 80bd bf5d 553f 3bc3 a7bf d05c 6c3e
00000110: 8487 94be 33b5 84be bd94 3d3d f817 e83d
00000120: b721 57be 2226 553e e863 003f 6935 9b3d
00000130: 30ff 0abf ed51 e4bd ed41 313e 3413 d23e
00000140: 4138 afbc 51bf 383f 0f3e 303d d17e 7c3b
00000150: 4536 c03e 824f 4ebd b829 5fbe e929 973e
00000160: c400 83bb 1f60 5d3e a03b 42bb e063 8d3e
00000170: 0729 353e ace1 d23c 28cc 22be 746d 91bc
00000180: c555 8c3d d1e8 0fbd d260 2c3f 9d5f 88be
00000190: 6d60 183d 4751 9a3e 9e38 a03e 154a c43e
000001a0: 4529 ae3d 0292 133e 3b0c 02bd 6617 3bbd
000001b0: 0941 003f 373d 3ebd 0217 b6bd 60d6 533e
000001c0: 0068 28bd d8ba d8bd 9474 9b3e 0e91 04bd
000001d0: 00bd 35bd 827a aa39 0669 893d f7a0 09bd
000001e0: f2b8 07be c143 61be 82ae f0bd 9acb 97bd
000001f0: ceac 203e 3422 aabe e97b 783e 04fd dfbe
00000200: 0381 913d 9887 90be 30d0 c4bb ff9b 89bf
00000210: 7ba0 ee3e 5f9a d23e 261f 81bf 1bc0 7f3d
00000220: 1ac3 bbbe 51d8 eebd 18c3 b4be a9e9 3abc
00000230: 5d7d 71be 41fc 733d 8af7 f2bc a2b0 a9bc
00000240: 4967 3b3c d0e9 15bf f63f 41be 075a 593f
00000250: aa62 cb3d 6872 a23c f475 80be 7bb3 f73d
00000260: 5c64 023d 06e2 49be 2b73 3c3e 6365 70bd
00000270: 3dce 2dbe 2c13 763e d02c 86be 1b05 863e
00000280: 2ef1 f0bb ae19 1bbd eb22 c2be 60a0 90bc
00000290: 083d d4bf af05 06bf 2a06 b43e 036e 97be
000002a0: 7967 dabe bf28 4f3e f68e b9be c328 55be
000002b0: a4a9 07be 173e 243f d430 c1be b2d4 95be
000002c0: cf5b 423e 2149 e9bd 4b19 80be c744 aa3e
000002d0: 7dbd 8bbe 0da3 8f3e d36e b9bd 0b48 4e3e
000002e0: 515e 9f3d df56 7cbe b3f6 eebc 8b33 1fbe
000002f0: 6586 033d 77c6 743e 7400 d438 e39d b7be
00000300: f642 513f e368 c13e 320a 51bd 48dd 4ebf
00000310: c893 a83c 2436 d03f faa2 adbe 712f c93e
00000320: 666e 533f 5fdf 27be 7a39 1b3e fcc8 8dbd
00000330: 0088 c3be 8f1e b3bc 0826 3abe 0998 91be
00000340: 9c62 703d 3a9f 5bbe fb66 2b3e b7c9 5d3f
00000350: 2b86 4bbe 028a 933e ffc5 0cbd c7b2 583d
00000360: 64ec e03d 6c30 c93c 3227 68be 8607 f8bd
00000370: 3c0b 4dbe 5b8d fd3d 4782 02be 21b6 393d
00000380: e916 c1be d6a5 a93e 0f11 b3be d0b6 0fbc
00000390: dd62 90be ed83 923d 762d 633f 3751 c43d
000003a0: 0b3f 473e ff37 103f 6dd8 5ebe 2fef 6ebe
000003b0: 5084 483d 287d febd d201 7bbd b60c 4abe
000003c0: b574 773e 548a 333e 5b49 52be d411 e1bd
000003d0: c519 213f 8937 b6bd 7053 40bf 4300 cebd
000003e0: b459 433e fcd7 ecbb f5a6 8a3c 6b32 d9bb
000003f0: 4692 b43b 1eea 2fbe e42a 8d3d 8d28 393e
0.46993694 -0.41510284 -0.03481004 0.0037884999 -0.061960835 -0.029643478 0.089722194 -0.04929458
0.5464141 -0.20376423 0.12126911 -0.05607527 0.15309174 -0.05480401 0.548741 0.22208041
-0.038675103 -0.1322811 -0.043333568 0.04266824 0.017956527 0.0792107 0.19485368 0.02962939
0.14241092 0.16362512 -0.4619585 0.03173063 -0.39037314 0.018808462 -0.17750613 0.07096671
-2.1079333 1.0237029 0.67870355 -0.8895259 0.28572774 0.094326995 -0.048505224 -0.47105908
0.25335255 0.4229516 0.15371047 0.03332758 0.1342503 -0.27798915 -0.7719038 -0.6747602
0.0902747 -0.019653637 0.10814828 -0.3337099 -0.06509964 -0.11075989 -0.11774743 0.25640723
-0.2998366 -0.17962813 0.14166422 0.040590025 0.5512592 0.40690362 0.08315203 -0.4588437
-0.062814176 0.8334617 -1.3106455 0.2308228 -0.2900964 -0.25919494 0.046284426 0.11332697
-0.21008955 0.20815328 0.50152445 0.075785466 -0.54295635 -0.111484386 0.17310305 0.41030276
-0.021389129 0.72166926 0.043027934 0.0038527737 0.37541404 -0.050368793 -0.21793258 0.29524162
-0.003997894 0.21618699 -0.002963759 0.2761526 0.17691432 0.025742374 -0.15898192 -0.017752387
0.06852297 -0.03513414 0.67335236 -0.26635447 0.037201334 0.30140135 0.31293195 0.3833777
0.08503965 0.14411166 -0.031749945 -0.04567661 0.50099236 -0.046445098 -0.08891107 0.20687246
-0.041114807 -0.105825126 0.3036238 -0.032364897 -0.044369698 0.00032516202 0.06709485 -0.033600774
-0.13254145 -0.21998502 -0.11752035 -0.07411881 0.1569092 -0.3322922 0.24266018 -0.43747723
0.07104685 -0.2822845 -0.006006263 -1.0750731 0.46606812 0.411334 -1.0087631 0.062439065
-0.36672288 -0.11662353 -0.35305095 -0.011408248 -0.23582979 0.05956674 -0.029659051 -0.020714108
0.011438199 -0.58559895 -0.18872055 0.84902996 0.09930928 0.019829944 -0.2508999 0.1209478
0.03183399 -0.19715127 0.18403308 -0.05869044 -0.16973205 0.24030751 -0.26206064 0.2617577
-0.0073529696 -0.037866287 -0.37917265 -0.017654598 -1.6581125 -0.5235242 0.35160953 -0.2957612
-0.42657068 0.20230387 -0.36241883 -0.2081633 -0.13248307 0.6415724 -0.37732565 -0.29263836
0.18980335 -0.11390901 -0.25019297 0.33255598 -0.27293006 0.28054085 -0.09054341 0.2014467
0.07781661 -0.24642514 -0.02917037 -0.15547006 0.03211059 0.23903833 0.00010109032 -0.35862646
0.817428 0.37775335 -0.051035114 -0.808064 0.02057828 1.6266522 -0.33913404 0.39294007
0.8259033 -0.16393803 0.15158644 -0.069231 -0.38189697 -0.021865157 -0.1817857 -0.28436306
0.05868779 -0.21447459 0.16738503 0.8663592 -0.198754 0.2881623 -0.03436851 0.05290487
0.10982588 0.024559222 -0.22671202 -0.1211081 -0.20023817 0.12380477 -0.1274501 0.045339707
-0.37712792 0.33134335 -0.34973952 -0.008771613 -0.28200427 0.07154069 0.8874124 0.09585803
0.19457643 0.56335443 -0.21762247 -0.23333429 0.048954308 -0.124262154 -0.061281033 -0.19731411
0.24165614 0.17533237 -0.20535795 -0.109897286 0.62929946 -0.08897311 -0.75127316 -0.10058644
0.19077188 -0.007227896 0.016925314 -0.0066283247 0.005510601 -0.17179152 0.06892946 0.18081875

fc1.bias f4 [128]
00000000: 1949 16be c1a1 aebe 00ec 20bd 8670 a6be
00000010: ab64 d1be 6d61 46bf e26d babe b3ca 46be
00000020: 1a70 8e3d b543 4ebf 7c83 dcbe ce3d 53be
00000030: 26d6 58be c944 39bd 272c 27be 0b80 73be
00000040: e09a f7be a56d 51be 2e90 00bf 19f7 97be
00000050: 0be1 9abe 4aca cbbd 6020 37bf a247 22bf
00000060: 9b05 65bf 0e8e bfbe 4bb8 82bf fdce 03bf
00000070: 85b9 323e caf9 7abe 5546 1bbf 5fba 37bf
00000080: 8417 b9be 808b 25bf b3d2 f7be 7ced 213f
00000090: e5d5 4abf d2c5 87be b23b 71bf 52a0 05bf
000000a0: 3c58 babe 92b4 fdbe 6911 c8be 3221 4abf
000000b0: e587 41bf acc2 19bf 1cc0 05bf 1a35 3bbf
000000c0: b7f0 62be 14a9 30bf 1b97 f83c 3978 f4bd
000000d0: d122 2d3c f947 76be 861b 38be 1567 e7be
000000e0: 50a2 86be c999 abbe 5e1b 40bf 97fd e0be
000000f0: 6f24 52bf 551e 3fbe 146c afbe 23a2 17bd
00000100: 22f5 fdbd f33e 8cbf 7555 bfbd eebc 62bf
00000110: 7d9c f7be f6df 74bf a476 9dbe be56 87bf
00000120: 98fe 3d3c 572b c4be a578 b7bd 7461 86be
00000130: 18fe 5ebf c607 50bf 8c0b a43d 4589 edbe
00000140: 1372 78bf 1185 a7bd 641c 2dbf 2984 cabe
00000150: 058d bcbc 0f8f bebd 71fc d0be 156b babe
00000160: 0cfd 13bf 3e20 b5bd 25cb c2be b992 a7be
00000170: 39dc e8be 3d85 1dbf d44f 46bf 85c5 7abf
00000180: df95 233e ab9c e0bd 3e4e 9dbe f451 6b3c
00000190: 8741 48bf d056 a5be cb61 7b3d 4c48 99be
000001a0: 23d8 86bf a7b1 963e 2e8d efbe 55cd 1fbe
000001b0: 24c4 45bf 3714 0bbf 3699 f3be 047a 4ebf
000001c0: 46c0 e83e 1043 4cbf b413 34be 32ec 54bf
000001d0: fa41 63be 7dbd c53e d981 bdbe 3a30 2bbe
000001e0: bbac 43bf 2574 17bf 48c7 e1be f8e2 b63e
000001f0: cc1b 09bf 86e4 eebe d923 323e dca0 d1be
-0.14676322 -0.34107783 -0.039287567 -0.32507724 -0.40897116 -0.7749241 -0.3641196 -0.19413261
0.069549754 -0.8057206 -0.43069065 -0.20629045 -0.21175441 -0.045231614 -0.16325437 -0.23779313
-0.48360348 -0.20451982 -0.5022 -0.29680708 -0.3024982 -0.09950693 -0.71533775 -0.63390553
-0.8946168 -0.37413067 -1.0212492 -0.51487714 0.17453583 -0.2450935 -0.60654193 -0.71768755
-0.36150753 -0.64665985 -0.48402938 0.63253 -0.7923263 -0.26518112 -0.9423171 -0.52197754
-0.36395442 -0.49551827 -0.39075783 -0.789569 -0.75597984 -0.6006267 -0.5224626 -0.731279
-0.22162138 -0.6900799 0.03034549 -0.11936993 0.010567383 -0.24050893 -0.1797925 -0.45195833
-0.2629571 -0.33515766 -0.7504176 -0.43943474 -0.82086843 -0.18663915 -0.34262145 -0.03701986
-0.12400271 -1.095671 -0.093424715 -0.88569534 -0.4836158 -0.9565424 -0.30754578 -1.0573347
0.011596344 -0.38314316 -0.08958558 -0.26246226 -0.87106466 -0.8126186 0.08010015 -0.4639379
-0.97049063 -0.08179677 -0.67621446 -0.39553955 -0.023016462 -0.0930463 -0.40817598 -0.36409822
-0.57807994 -0.0884404 -0.38045612 -0.32729128 -0.45480517 -0.6153143 -0.7746556 -0.9795764
0.1597514 -0.10967382 -0.30723757 0.014362801 -0.78224987 -0.32292795 0.06137256 -0.2993797
-1.053471 0.29432413 -0.467874 -0.15605672 -0.7725241 -0.5432772 -0.47577828 -0.8065493
0.45459193 -0.7978983 -0.17585641 -0.83172905 -0.22193137 0.3862113 -0.37013128 -0.16717616
-0.7643544 -0.591616 -0.44097352 0.35720038 -0.5355804 -0.46658725 0.17396487 -0.40943038

fc2.weight f4 [256, 128]
00000000: b86a 943b 70c0 023c d6f6 83bd e0db 7dbd
00000010: 2d06 bdbc ae95 133d 4540 2c3d 3f0f 5f3d
00000020: 8395 c6bc b794 8abd 1664 18bd 329c c2bd
00000030: d55b 05bd 6a8d dbbc 69ea 48bd a628 633c
00000040: cb23 263c d591 36bd def1 9d3c 284d d1bc
00000050: 7754 acbd 2d00 053d 6576 72bc 3c43 80bd
00000060: 6ba4 b8bc a78e 4bbd 906b 3ebd 9a3b 01bc
00000070: 2b32 60bc 2f19 72bd a454 443d 9b0c cabd
00000080: b221 43bd b8c0 adbd 4fa6 8a3b 2abc 9ebd
00000090: 2d54 dfbd 628d 2fbd 3946 2cbd fa8a e4bc
000000a0: 1066 f0bd 3141 f93b 67d5 39bd 4194 843b
000000b0: afa1 843c a7b0 dcbd b11e 41bc f27b b4bd
000000c0: 25fb 9bbd e952 3dbd 7d9c d5bb 23ff 6ebd
000000d0: 5295 a8bd 6fcd 6dbd 65ca 7e3c d64c a6bd
000000e0: ca50 ccbd 8b65 143d bffa 803c f784 853c
000000f0: 3c89 ca3b cea5 6abd 29f7 db39 6841 29bd
00000100: 8f38 78bc d7c2 e8bc 0505 203c 0ced 693c
00000110: aa36 60bd 81d4 26bd 2145 87bd 3dbb f03b
00000120: 977f 32bd 72f4 f4ba 7ccb cfbc 6db1 5ebd
00000130: d3ae 9cbc a9ae 06bd de17 ac3c 69fa 46bd
00000140: fbac c1bb d54e 8fbd bbf5 51bb 1318 b7bd
00000150: d37d 0abd e3c7 febc 1c57 98bb 74a4 d1bd
00000160: 8c45 093b 874e 4bbd f809 89bc 4e34 0dbd
00000170: e5c2 9ebc 22ed 0ebc 2e0b 543d 4916 a1bd
00000180: 6a74 3fbd e0aa 39bd 1f26 79bc e5d9 24bd
00000190: 58ae 1c3d eca2 ac3c 2ed4 ae3c a2ca f9bc
000001a0: 7a78 4fbd e940 a4bd 4f6b 353d 6117 b83c
000001b0: 2db7 a33c 4490 12bd 5e8b 84bd d5fa 18bd
000001c0: 2d82 d9bc 7343 bbbd 66aa 61bd f9a1 dc3b
000001d0: 414e 423c 4643 eabd 0bcc 08bc a790 86bd
000001e0: cc71 25bc 0677 f8bc a561 7bbc 45e6 633d
000001f0: 14fe 613c ed42 9cbc 4af0 e43c 902b 59bd
00000200: 9812 88be 274d 50bf ccf8 9d3e c5e4 953e
00000210: 204c eebe f99b 0abe ae4d 243d 0dc6 f63e
00000220: 214e 643c 647f 27be 7629 e9be e701 60be
00000230: e42f 85bc 24d6 7ebf e24c 083f 9e43 42be
00000240: 130a 523e adfb f5bc 4c3d 63be ba60 a93d
00000250: 477b e4bd 3c34 b4be 17da 2fbf e80e d33e
00000260: 4510 93be b2d2 5dbe 04f3 aebe ea30 8b3d
00000270: 11aa 04bf 42c7 aa3e 362d dabe 9824 9cbe
00000280: 0e4b 9b3d 3aaa f6bc 0914 ecbd 1c20 e7be
00000290: 0c15 d4bd 3343 c6be e595 293d 2b1b b0bb
000002a0: a6e8 b6be 26e0 5e3e d4a2 173f 72c4 9a3e
000002b0: f6bb b23d b019 5a3e a688 cfbe f079 1b3e
000002c0: 8507 a63e a19a 0a3f 12c0 5e3d 3ed1 e6bd
000002d0: f5e3 bc3e 1110 8dbc 64e7 7b3c ac4f 3ebd
000002e0: 3ff8 0a3f 6351 05bf d323 3dbe 6d00 d1be
000002f0: 882e 03be 59a6 653e ad79 383f af46 e1bd
00000300: 6b85 a0bf 4b92 0ebf 5358 92bd 43af 833e
00000310: 4267 01bf fcce ef3e 13d7 0e3d 01ae c53d
00000320: ad56 f2bd 12c4 3c3e b14c 32be 89d7 c4be
00000330: 9272 acbd 2575 50be e485 863e 5754 053c
00000340: 1dd3 233f eb99 963d e7de e13e e15e 09be
00000350: 402a b6be b239 b6be 127f 1d3e 96bb e43d
00000360: 6d79 2b3e 53db bebc 080b 78bd 850b eb3e
00000370: 4d6e 063f e0ba 2fbe feb1 96be de2c c53e
00000380: 7cb1 e4be 43f0 ca3e 9d72 1e3e b5d6 b53d
00000390: b6d2 05bf 6002 2dbc 2e1f 203e dafe 77be
000003a0: c9ca 01bf 597d e4bd 9781 e2bd 48e6 2abf
000003b0: b7f5 3ebe e028 85be 54e0 54bd ccfb 27bf
000003c0: e993 eb3d 0263 fcbe f32f b2be 8c9d 29bf
000003d0: dfdc bf3e e1b9 23bf 53f7 1abf 24b3 a0be
000003e0: e6b8 64bf 3cbf 4cbd 9cbc 2dbf 446c 3b3e
000003f0: a027 31be 2059 273f 437a 58be b46c febd
0.0045293234 0.007980451 -0.064435646 -0.061977267 -0.023074234 0.036031418 0.04205348 0.0544579
-0.024241215 -0.06766646 -0.037204824 -0.09502448 -0.03255828 -0.02680083 -0.049051676 0.013864672
0.01014037 -0.04457267 0.01928037 -0.025549486 -0.08414548 0.03247087 -0.014798735 -0.06262824
-0.022539338 -0.04969659 -0.0464893 -0.007887745 -0.013683836 -0.05910605 0.047932282 -0.098656856
-0.047639556 -0.08484024 0.0042312513 -0.07750733 -0.10904727 -0.042859443 -0.042059157 -0.0278983
-0.11738217 0.0076066484 -0.045369532 0.0040459936 0.016190378 -0.10775881 -0.011787103 -0.08812703
-0.076162614 -0.046221647 -0.006518899 -0.058348786 -0.082316056 -0.058057245 0.015551184 -0.08120124
-0.09976347 0.03622965 0.015744565 0.016298754 0.0061809104 -0.05728703 0.00041955084 -0.041322142
-0.015150203 -0.02841322 0.009766822 0.014277708 -0.05473963 -0.040730003 -0.06604982 0.0073465393
-0.04357871 -0.0018688573 -0.025365584 -0.054368425 -0.019126331 -0.032881413 0.021007475 -0.048578653
-0.0059105135 -0.06997458 -0.0032037336 -0.08940139 -0.0338114 -0.031101173 -0.004649056 -0.10236445
0.0020945994 -0.049635436 -0.016728386 -0.03447371 -0.019380042 -0.008723529 0.051768474 -0.07865579
-0.04674188 -0.045328975 -0.015206843 -0.040246863 0.038252205 0.021073781 0.02134141 -0.03049213
-0.050652005 -0.08020193 0.04429179 0.022472085 0.019984806 -0.035782114 -0.06471895 -0.037348587
-0.02655133 -0.09143724 -0.055094145 0.006733176 0.0118594775 -0.11438613 -0.008349429 -0.06570559
-0.010097932 -0.030330192 -0.0153431045 0.055639524 0.013793487 -0.019074881 0.02794661 -0.05302006
-0.26576686 -0.81367725 0.3085388 0.292761 -0.46542454 -0.13536061 0.040113144 0.48197976
0.013934643 -0.1635719 -0.45539445 -0.21875726 -0.016258188 -0.995455 0.53242314 -0.18971106
0.20511656 -0.030027235 -0.22191352 0.08270402 -0.11156326 -0.35196102 -0.68692154 0.4122231
-0.2872335 -0.21662405 -0.3416978 0.06796439 -0.51822 0.33355147 -0.42612618 -0.3049667
0.07582675 -0.030110467 -0.11527259 -0.45141685 -0.10355577 -0.38723144 0.041402716 -0.0053743324
-0.35724372 0.21765193 0.5923283 0.30228 0.08727257 0.21298862 -0.40533942 0.15183234
0.32427612 0.54142195 0.05438239 -0.112703785 0.36892667 -0.017219575 0.015374992 -0.0464627
0.54285043 -0.5207731 -0.18470697 -0.40820637 -0.12810719 0.22426738 0.7206066 -0.1099981
-1.2540716 -0.55691975 -0.07145753 0.25719652 -0.50548184 0.46837604 0.03487308 0.09652329
-0.11832938 0.1843417 -0.17412068 -0.3844569 -0.0842029 -0.20357187 0.26274025 0.008137784
0.6399401 0.07353576 0.44115373 -0.134151 -0.3557911 -0.35590893 0.15380505 0.11168592
0.16745539 -0.023297941 -0.060557395 0.45907226 0.52512056 -0.17161131 -0.29432672 0.38510793
-0.4466666 0.3963643 0.15473409 0.08878843 -0.52274644 -0.010559648 0.15636894 -0.24218312
-0.5070005 -0.11156721 -0.110598736 -0.6675763 -0.1864842 -0.26007748 -0.05197175 -0.65618587
0.11502821 -0.49294287 -0.34802207 -0.6625602 0.374732 -0.63955504 -0.60533637 -0.31386673
-0.8934463 -0.049987063 -0.6786592 0.18303019 -0.17300272 0.6537037 -0.21140389 -0.12423077

fc2.bias f4 [256]
00000000: dbd8 e1bd dc7c 933c c460 76be 2617 c2bd
00000010: 39a5 b13d ae59 cdbd 056d d63b 9620 ecbb
00000020: cb5a 3dbe 7e7f 1f3e 290f c4bd 1533 b4bd
00000030: 6cfd 2b3d e3ae 003d 66ab f93c 22e8 373c
00000040: dd46 2dbe b9e0 93bc f012 5bbf fa56 d4bd
00000050: 73c0 8dbc 94b6 3bbf 8602 48be f563 abbd
00000060: c244 673d 9efb 3abd 1593 2c3e 4cf0 d2bd
00000070: 2b9c b03d c96b 01bd 63f7 b63e 813a e7bd
00000080: 993a b3bd 4c86 ecbd f810 913e c158 fd3d
00000090: d294 53bc 421e 173d 0ad9 983c f897 d13c
000000a0: 6816 a5be 555c 94bd 65f7 b03c 428d f1be
000000b0: 5a54 81be 69ef 50bd 2f40 31bf 7570 36bd
000000c0: 9404 61be 8171 24be c3ea a8be f97f 84be
000000d0: 9bef e1be e7da 35bf c68b 89b9 7444 07bd
000000e0: 20f9 563d 3ad0 e0be e038 36be 1ede 85bd
000000f0: a64d 08be f62a bcbe de61 34bf ea59 adbd
00000100: f4f3 3c3c ea99 0abe b207 97bd 8a03 f0be
00000110: 7125 f73c ed2d cabc 56fc 8cbd 67ec 353c
00000120: 2885 4f3c 8d6f 0bbe 6949 ba3c ea11 5c3d
00000130: a659 d03c ccc0 00bd 75b6 753e ee9b 8ebe
00000140: 0478 15be e21a b8bc 91e5 76bd 1745 213d
00000150: 82dc 9c3b 9ef3 e1bd ec10 1d3e afc7 793e
00000160: 760e b4bd 958a 193c 39f8 44bd e292 0d3d
00000170: 31c4 133d 80b2 44be 3e73 d7bd b0ed 82be
00000180: 14ea 1fbe db9f 94bd 5cf8 0cbf 7d75 e6be
00000190: 92a4 7ebd a658 a8bc ec3d f9be 9008 76bf
000001a0: 353d f23c bef9 d8bd 982b ffbe 5e35 41be
000001b0: a7e4 8b3e f1c5 653b 2221 3ebd 21d5 debd
000001c0: 259b 0fbe 9021 62bf 482c dcbe f331 a3be
000001d0: 5666 24bd 7dde ac3b 5322 3d3d 5022 e5bd
000001e0: 7cbb 4fbf 902f bfbd 3c81 65be 9c10 b73d
000001f0: 20fe e6bd 34d3 f0bd a549 bfbd bfcf 89bd
00000200: b8da a3bd f048 17be 2be1 62bd e40f 6fbe
00000210: 5773 e23d 68bd c3bd 199e 3cbf 7b38 62be
00000220: 234f cfbc 97b9 203e 7862 c7bd e3b0 5e3e
00000230: 94e1 a4bc 9b01 00bf 45eb 5bbc 17d9 d2be
00000240: 4247 0d3e 56ba 2bbd d859 93bc 0202 f43a
00000250: 1a0f 37be b646 22bd b37b d4be 41cf 06bf
00000260: 4cc1 aebd a86a 9fbe c0bf babd 8c56 a43d
00000270: aa03 66be d5ac 473d 6a0b 023d 4fe6 79bd
00000280: 0ef2 0fbf 6ff3 08bf 252f b73c a960 6bbe
00000290: 1809 4e3c ed97 0ebe 926a bcbd 6ce0 6abe
000002a0: 8824 b53c 5674 acbe 938e f1bd 8a74 75bd
000002b0: 11c8 31bd 5820 043d fb4d c9bd 5071 6bbe
000002c0: b1eb fdbd 0120 973e 071d 06be 2c39 3abe
000002d0: 6753 45bf 8717 27be e82a 37bd c243 edbd
000002e0: 9cde 22ba 8ada aabd a9fb c1bd 5ec3 363d
000002f0: aee8 e6bd 885f 00bf f37f 11bd 81fe bbbd
00000300: a80f 66be 91aa 5b3d 85e8 c9bc d567 a93c
00000310: bc79 40bf f697 edbd f0ae bfbe 886c 8b3c
00000320: 5a01 91bd 9155 98bc fb01 dcbd 5b4c a3bd
00000330: 0013 4a3c d03b 06be c083 f9bc 22e8 24bf
00000340: ddba acbe 60c4 1abd 3f13 13be cf0c e6be
00000350: 53c1 16be 4413 c63e b218 3c3e dd31 a5bd
00000360: fa9d 7dbd 3873 bdbd 2e26 aabd 5cd3 00be
00000370: 002b d5bd cd08 413c a512 753d 5d06 863b
00000380: cfb4 70bd f03a 32bd 701d eabd 48b1 16be
00000390: 0084 09bd e106 afbd fa97 b23d 4aef 3dbd
000003a0: 1a1a 853d 6a60 92bd 4c65 5ebc 4c2e 93bc
000003b0: 304e 5fbe f234 fbbe 4d10 18bd 62f3 2e3e
000003c0: 62b7 b5be ff0b 8abd 9868 eabe a3f0 44bd
000003d0: 4ae0 15bd ec55 e3be 2615 0cbe 1444 91bd
000003e0: e4f8 d1bd 8a1c 783e 0166 93bd 1f15 98bc
000003f0: b358 e5bd f878 05bf b0c0 0ebf 153e e23c
-0.1102769 0.018003874 -0.2406035 -0.094770715 0.08674092 -0.10026871 0.006543758 -0.007206033
-0.18491666 0.15575978 -0.09573204 -0.087988056 0.04198973 0.031416785 0.030477237 0.011224778
-0.16921563 -0.018051492 -0.8557577 -0.10368152 -0.017303681 -0.7332547 -0.19532213 -0.08368675
0.056462057 -0.045650117 0.16852982 -0.10299739 0.08623537 -0.031596933 0.35735616 -0.112904556
-0.08751411 -0.115490526 0.2833326 0.12370444 -0.0129138995 0.03689409 0.01865818 0.02558516
-0.32243657 -0.072441734 0.021602342 -0.47178084 -0.25259668 -0.05100957 -0.6923856 -0.04454084
-0.21974403 -0.16058923 -0.3299161 -0.25878885 -0.44128117 -0.71037143 -0.00026234816 -0.033024266
0.052483678 -0.43908864 -0.17795134 -0.06536506 -0.1331087 -0.36751527 -0.70461833 -0.08464415
0.011532772 -0.13535276 -0.07374515 -0.468777 0.03016922 -0.024680102 -0.06884067 0.011103726
0.012666024 -0.13616772 0.022740083 0.05372802 0.025433373 -0.031433865 0.23995383 -0.2785334
-0.14596564 -0.022473756 -0.060277525 0.03937253 0.0047870288 -0.110327944 0.15338486 0.2439258
-0.08791821 0.009371419 -0.048088286 0.034563906 0.036075775 -0.19208717 -0.105200276 -0.25571966
-0.15616637 -0.072570525 -0.55066466 -0.4501151 -0.062168665 -0.020550083 -0.48680055 -0.96106815
0.029570201 -0.105945095 -0.49837947 -0.18868014 0.27322885 0.003506061 -0.046418317 -0.10880495
-0.14024027 -0.8833246 -0.43002534 -0.31874046 -0.040136658 0.005275546 0.046175312 -0.11188185
-0.81145453 -0.09335244 -0.2241258 0.08938715 -0.11278939 -0.11759034 -0.093402185 -0.067290775
-0.08000702 -0.14773917 -0.05539052 -0.23345906 0.110571556 -0.09557611 -0.7367874 -0.22091858
-0.02530629 0.15695797 -0.09735578 0.21747164 -0.020127095 -0.5000245 -0.013422792 -0.4118125
0.13796714 -0.04192575 -0.017987177 0.0018616321 -0.17876855 -0.039618216 -0.41500625 -0.52659994
-0.08532962 -0.3113606 -0.09118605 0.0802432 -0.22462335 0.04874881 0.031749167 -0.061010655
-0.5622872 -0.5349645 0.022361347 -0.22986092 0.01257541 -0.13925143 -0.09200014 -0.22937173
0.022112146 -0.33682507 -0.11794772 -0.059925593 -0.04340369 0.032257408 -0.09829327 -0.22992444
-0.1239847 0.29516605 -0.1309701 -0.18185872 -0.77080387 -0.16317569 -0.044718653 -0.115851894
-0.0006212981 -0.08342464 -0.094718285 0.04461991 -0.11274849 -0.5014577 -0.035522413 -0.09179402
-0.2246691 0.05362946 -0.024647007 0.020679394 -0.7518575 -0.1160125 -0.37438154 0.017019525
-0.07080336 -0.018595489 -0.10742565 -0.07973548 0.0123336315 -0.13108754 -0.030458331 -0.64416707
-0.33736315 -0.037784934 -0.1436281 -0.44931647 -0.14722185 0.38686574 0.18368796 -0.08066151
-0.061918236 -0.09250492 -0.083080634 -0.12580627 -0.10408592 0.011781883 0.059832234 0.004090114
-0.058766183 -0.04351324 -0.11431396 -0.14716065 -0.03357315 -0.08546234 0.087203935 -0.046370782
0.06499119 -0.07147296 -0.013573956 -0.017966412 -0.2180717 -0.49063832 -0.03712492 0.1708503
-0.35491472 -0.06740569 -0.45782924 -0.04808105 -0.03659085 -0.4440149 -0.13679942 -0.07093063
-0.1025255 0.24229637 -0.0719719 -0.018564759 -0.11198559 -0.5213771 -0.5576277 0.027617494

fc3.weight f4 [4, 256]
00000000: cf8e 22bc 6d6b a0be 08fe 28be 836c ce3c
00000010: e7f0 14be eb31 f13c 0930 bc3c ce57 bfbb
00000020: ec51 9ebe 7961 523f 2002 f23c 0116 a73e
00000030: a9ee 4eb9 8b2d a5bd 74be 043d 5515 f13c
00000040: e4e9 81be 2f53 ce3c 03ba 12bf d89a 13bb
00000050: de90 b83c abf2 91be d2eb cb3c 10a5 403d
00000060: 1c0d f33c d508 98bc e026 2bbe e4d3 393c
00000070: 62a6 e23e b13d e73c 31cf f83d ddae da3c
00000080: d800 0f3d 434c 30bc 1851 593e 3188 2bbe
00000090: 8d3b cb3c 0738 153d a3bf d43c 7eb4 3abb
000000a0: 2e30 983c 8d07 e03c 7c51 55bc 2e05 24bf
000000b0: cb76 983e 0e0f febc ba20 80be 6096 e93c
000000c0: e6b9 febd eda5 2cbe c77c 5a3e fc53 a4bd
000000d0: 8f9c a7be 5aeb 61be f9d7 b73c 46b3 723e
000000e0: 5fec d23c 45c2 103f 58d3 74bd 4910 da3c
000000f0: 30a3 5c3e 2d61 183e 50a4 403f 1432 943e
00000100: 0c01 813c 9c24 123d ed21 c13c 2e48 33bf
00000110: 272c 613c 0f63 bd3c 05ba ea3c a796 17bc
00000120: 71f5 053b 6271 d93c 7012 a93c 536b bc3d
00000130: 314f 833c 2fcf 9b3c f191 03be d61f e6be
00000140: fa6c 54be 7d0e a4bb 9ecb 883e 750c acbe
00000150: 470e 9fbe ef60 393d a57a 03be c057 a03e
00000160: b26d 163e e1b2 31bb fcd0 6ebc 804a 5b3f
00000170: 3584 8c3c c47b 713d 8dcf 593d cd48 063e
00000180: b93d 89be 4f0a 8c3c 15d0 45be c29b 05bf
00000190: b3e7 b3ba e0e8 aa3d 0f58 0f3d beaa d53e
000001a0: f841 a6bc 6252 3b3c 176b 003f 6fea 6a3e
000001b0: a383 633e 5152 913c f722 cc3c be57 b93e
000001c0: 3556 99be b8f8 a53e 960e 0e3e e01b 03bf
000001d0: 83d7 973c 1854 6b3d fabb d53c 5e37 ff3c
000001e0: 05e3 6abd ee61 abbe 04a7 05be ccfa 363f
000001f0: b743 883d db77 e33d f8bf 143d 66fc bfbb
00000200: 7522 6a3c ec5e 06bf b78e bb3c c12a 12bf
00000210: 3828 a43e 2bea c63c 2c7b 053f 1a5d 1bbf
00000220: 0693 353f 108a 99bd 78bb c33c ed49 09bf
00000230: a0e6 a03e 3de4 0bbf 4876 273d e4a8 b33c
00000240: 1353 9f3e 5dd5 a23d 06e7 dc3c db08 fd3c
00000250: f5d2 a93e 3598 0e3d 485c 9cbe 39ff e13d
00000260: 2644 473c ee04 dabd 800f cb3b f6a7 6f3c
00000270: 8c71 2b3e 6597 e03c 05e9 933c bbb4 c13c
00000280: 2b45 c93e 2875 01bf 65c9 df3c c352 383d
00000290: 15f7 11be c5d2 d13c cc64 3a3e 9475 b83e
000002a0: abd6 673c bcce 1bbe 7487 063f f7c3 813d
000002b0: f78e 2a3a 8559 98be 2d7f d53c c49e 66bc
000002c0: 3a43 cc3b 2119 42be 5881 9bbd 5e6e 96be
000002d0: 1647 2bbf 7d7e a2be ad7b 51bb 6969 b63b
000002e0: b4a1 083d 75de de3d 4450 fb3b a6fa 5dba
000002f0: ebf9 033f f81b 5bbf 45a5 f43c d67a cabc
00000300: 8b09 4bbf 8b1e df3c 0866 753c 2bc5 d03c
00000310: 7807 6c3f 9ad4 7f3c 37fc 383e b0dc f53c
00000320: b150 77be 384d d63c aa4b 183c 6b76 403d
00000330: 88f5 283d d6c0 493b f5e6 073d bc98 9b3d
00000340: 9a48 823d 9ef5 ea3c dad2 dd3c 83bd 00be
00000350: 8f21 a23d 129f 9f3e acdf ea3c 0943 de3b
00000360: 4628 033f d8ad e63c e41b 0d3e 7cbb a9be
00000370: ebbf 613c df56 f73c 9bd8 983c 58fb 53bb
00000380: c249 d6bb 5c0e 683c 106b 193c f7e4 773c
00000390: a549 fa3c 7679 353c a126 d73e d0d5 42bd
000003a0: 3f3f 52bd 8e57 ef3c 2891 e03c baf0 723d
000003b0: 5069 e73d 5af0 0b3e 1543 04bc 7608 22be
000003c0: 5b44 8dbe 59b1 353f 799d 8cbd 160a 3b3d
000003d0: 46d7 da3c 066c b6be ed6d d83d 1071 273c
000003e0: 8e4a acbb 2003 fdbc 81dc 043d 109a 8f3d
000003f0: bd07 f2b8 195b 09be aef8 323d 8ab4 df3c
-0.009921744 -0.3133196 -0.16503155 0.025198227 -0.14545022 0.029442748 0.022972124 -0.0058393246
-0.30921876 0.8217998 0.029542029 0.32633975 -0.00019734599 -0.08065327 0.032408193 0.029429117
-0.25373757 0.02518615 -0.5731508 -0.0022522714 0.022530016 -0.28505453 0.024892721 0.047032416
0.029669337 -0.018558899 -0.16714048 0.011342023 0.44267565 0.028227659 0.121488936 0.02669471
0.034912914 -0.01076037 0.21222341 -0.16751172 0.02480867 0.036430385 0.025970286 -0.002848893
0.018577661 0.02734735 -0.013019916 -0.64070404 0.29778132 -0.031013038 -0.25024968 0.028514087
-0.12437801 -0.1686017 0.21336661 -0.08023831 -0.32736632 -0.22062436 0.022441851 0.237012
0.025747476 0.5654643 -0.059771866 0.026619093 0.21546626 0.1488082 0.7525072 0.28944457
0.01574757 0.035679445 0.023575747 -0.7003201 0.013743437 0.023118524 0.028653154 -0.009252227
0.0020440484 0.026543323 0.020638674 0.09200158 0.016028972 0.019019691 -0.12848641 -0.44946164
-0.20744696 -0.00500661 0.26717848 -0.33603254 -0.3106558 0.04525846 -0.12839754 0.31316948
0.14690283 -0.0027114677 -0.014576193 0.8566055 0.017152885 0.058955923 0.05317645 0.13113709
-0.26804903 0.01709476 -0.19317658 -0.5219079 -0.0013725668 0.08345199 0.03499609 0.41731828
-0.020295128 0.011433216 0.50163406 0.22940992 0.22218184 0.017739447 0.024919016 0.36199754
-0.29948583 0.3241632 0.13872752 -0.5121441 0.018535381 0.057453245 0.02609061 0.03115433
-0.05734541 -0.33473152 -0.13051993 0.71476436 0.066535406 0.11106845 0.03631589 -0.0058589457
0.014290442 -0.5248859 0.0228952 -0.5709649 0.32061934 0.024281582 0.5214107 -0.60688937
0.70927465 -0.074970365 0.023893103 -0.53628427 0.31425953 -0.5464514 0.040884286 0.02193112
0.31118068 0.07950852 0.02696563 0.030888012 0.3316876 0.034813125 -0.30539155 0.11035008
0.012162244 -0.106454715 0.006196916 0.014627447 0.16742533 0.02741594 0.018055448 0.02364575
0.39310583 -0.5056939 0.027317712 0.045000803 -0.1425441 0.025613198 0.18202513 0.36027205
0.014150302 -0.15215582 0.52550435 0.063362055 0.0006506289 -0.29755798 0.026061619 -0.014075939
0.0062336 -0.18954898 -0.0759303 -0.29381078 -0.66905344 -0.31737128 -0.0031964586 0.005566765
0.033357337 0.10882274 0.0076694805 -0.00084678305 0.5155322 -0.8558955 0.029863963 -0.024716776
-0.79311436 0.027236244 0.014977939 0.025484642 0.92198896 0.015614653 0.18064962 0.030012459
-0.24151875 0.026159868 0.0092953835 0.046987932 0.04124978 0.0030785105 0.033179242 0.07597491
0.06361504 0.028681573 0.02707808 -0.12572293 0.07916557 0.3117605 0.028671108 0.0067828936
0.5123333 0.028159067 0.1378017 -0.33150852 0.013778667 0.03019279 0.018657973 -0.0032345857
-0.0065395543 0.01416358 0.009363905 0.015130273 0.030552695 0.011076322 0.4202166 -0.04756719
-0.051329847 0.029216554 0.027412966 0.059311606 0.11299384 0.13665906 -0.008072634 -0.1582354
-0.27591214 0.70973736 -0.06865973 0.045663916 0.026713978 -0.3562929 0.10567842 0.010219827
-0.005257911 -0.03088528 0.03243685 0.07011807 -0.000115409006 -0.13413657 0.04369419 0.027307767

fc3.bias f4 [4]
00000000: db4e 5fbe d10d 42be 1c77 bebd 952a f6bd
-0.21807425 -0.18950583 -0.09300062 -0.12019841
